app/src/main/assets/model_lite_age_q.tflite (tflite, 414816 bytes, 30 tensors)

model_1/dense_4/BiasAdd/ReadVariableOp/resource f2 [256]
000000 0c 82 3c 0d 00 00 00 80 95 84 15 8b 54 0c 00 80
       -3.123e-05 0.0003195 0.0 -0.0 -6.99e-05 -0.0002161 0.0002642 -0.0
000010 3a 89 8c 8e 8d 90 00 00 00 80 00 00 00 00 9f 81
       -0.0001595 -0.0003996 -0.0005555 0.0 -0.0 0.0 0.0 -2.474e-05
000020 00 80 4f 87 0d 81 6f 04 42 05 00 00 dd 01 00 80
       -0.0 -0.0001115 -1.603e-05 6.765e-05 8.02e-05 0.0 2.843e-05 -0.0
000030 00 00 50 86 be 0b 95 8d 00 00 e2 01 00 00 7b 0d
       0.0 -9.63e-05 0.0002363 -0.0003407 0.0 2.87e-05 0.0 0.0003345
000040 15 80 00 00 e7 80 3b 8d 94 0c 00 80 08 8c 7f 08
       -1.25e-06 0.0 -1.377e-05 -0.0003192 0.0002794 -0.0 -0.000246 0.0001372
000050 66 05 21 0b 5f 82 00 00 6f 8e fe 80 7b 8d 4a 88
       8.24e-05 0.0002176 -3.62e-05 0.0 -0.0003927 -1.514e-05 -0.0003345 -0.0001309
000060 52 04 00 80 00 80 e8 08 e2 06 f8 83 56 90 00 00
       6.59e-05 -0.0 -0.0 0.0001497 0.000105 -6.056e-05 -0.0005293 0.0
000070 fd 8d 85 8d ec 85 76 8c 00 80 14 8f 00 00 00 80
       -0.0003655 -0.000337 -9.036e-05 -0.0002723 -0.0 -0.000432 0.0 -0.0
000080 3c 05 fc 85 00 00 00 80 00 00 80 89 00 80 ca 87
       7.99e-05 -9.13e-05 0.0 -0.0 0.0 -0.0001678 -0.0 -0.00011885
000090 d0 06 22 8c 00 00 7d 8b 00 00 c6 84 00 80 4a 0b
       0.00010395 -0.0002522 0.0 -0.0002285 0.0 -7.284e-05 -0.0 0.0002224
0000a0 00 00 b6 8d 00 80 29 01 00 80 b9 89 00 00 00 80
       0.0 -0.0003486 -0.0 1.77e-05 -0.0 -0.0001746 0.0 -0.0
0000b0 00 00 00 00 00 00 89 81 04 08 00 80 b9 8c 00 00
       0.0 0.0 0.0 -2.34e-05 0.0001225 -0.0 -0.0002882 0.0
0000c0 f0 82 ee 89 00 80 99 01 03 8a 49 90 31 0c 23 04
       -4.48e-05 -0.000181 -0.0 2.44e-05 -0.0001835 -0.000523 0.0002558 6.31e-05
0000d0 7e 8c c7 88 1f 06 00 80 47 07 3a 0c 0d 8e 00 80
       -0.0002742 -0.0001458 9.34e-05 -0.0 0.00011104 0.000258 -0.0003693 -0.0
0000e0 00 00 00 80 09 08 1f 8d 68 88 2b 8c a0 05 10 85
       0.0 -0.0 0.0001231 -0.0003126 -0.0001345 -0.0002544 8.583e-05 -7.725e-05
0000f0 00 00 00 80 bd 83 80 8b ec 88 00 00 64 83 cc 8e
       0.0 -0.0 -5.704e-05 -0.0002289 -0.0001502 0.0 -5.174e-05 -0.0004148
000100 35 0c 63 8e 00 00 8e 84 4e 88 00 80 26 85 d7 86
       0.0002568 -0.0003898 0.0 -6.95e-05 -0.0001314 -0.0 -7.856e-05 -0.00010437
000110 46 82 82 03 00 00 00 00 cf 0c 00 80 00 00 47 80
       -3.47e-05 5.35e-05 0.0 0.0 0.0002935 -0.0 0.0 -4.23e-06
000120 82 0d 00 80 64 8c b2 86 00 80 38 81 00 00 00 00
       0.0003362 -0.0 -0.000268 -0.00010216 -0.0 -1.86e-05 0.0 0.0
000130 1e 88 a8 05 0c 8e 84 86 6f 8f 00 80 c8 88 13 8d
       -0.0001256 8.63e-05 -0.000369 -9.94e-05 -0.0004537 -0.0 -0.0001459 -0.0003097
000140 40 09 88 88 9f 00 00 80 00 00 00 00 04 85 13 09
       0.0001602 -0.0001383 9.5e-06 -0.0 0.0 0.0 -7.653e-05 0.0001549
000150 11 06 1a 87 7e 81 00 00 00 00 00 00 00 80 00 00
       9.257e-05 -0.00010836 -2.277e-05 0.0 0.0 0.0 -0.0 0.0
000160 13 80 bf 8c 00 80 00 80 00 8f 2b 8b ce 91 8a 07
       -1.13e-06 -0.0002897 -0.0 -0.0 -0.0004272 -0.0002187 -0.0007086 0.00011504
000170 00 00 00 00 f0 8e 1f 8f 44 88 e7 8f 00 80 00 00
       0.0 0.0 -0.0004234 -0.0004346 -0.0001302 -0.0004823 -0.0 0.0
000180 00 00 13 81 00 00 2f 09 09 00 d0 89 bc 0c 00 00
       0.0 -1.64e-05 0.0 0.0001582 5.4e-07 -0.0001774 0.000289 0.0
000190 00 80 00 80 00 80 00 00 4d 01 59 81 b4 01 00 00
       -0.0 -0.0 -0.0 0.0 1.985e-05 -2.056e-05 2.6e-05 0.0
0001a0 00 80 00 00 00 80 41 92 00 80 00 80 00 00 00 00
       -0.0 0.0 -0.0 -0.0007634 -0.0 -0.0 0.0 0.0
0001b0 00 80 00 80 00 00 52 09 9e 8e 99 0c 33 8b 26 0c
       -0.0 -0.0 0.0 0.0001624 -0.000404 0.0002806 -0.0002197 0.0002532
0001c0 4f 8d d3 89 71 8c 00 00 a4 88 d5 88 67 09 c9 8f
       -0.000324 -0.0001777 -0.000271 0.0 -0.0001416 -0.0001475 0.0001649 -0.0004752
0001d0 00 00 00 80 87 01 00 80 64 90 1b 90 00 00 68 01
       0.0 -0.0 2.33e-05 -0.0 -0.000536 -0.000501 0.0 2.146e-05
0001e0 00 80 bb 0d 00 80 b4 8e 00 80 00 80 00 00 c5 8f
       -0.0 0.0003498 -0.0 -0.0004091 -0.0 -0.0 0.0 -0.0004742
0001f0 7b 8c 92 10 1f 80 9f 0a b3 8c 00 80 a7 84 00 00
       -0.0002735 0.000558 -1.85e-06 0.0002021 -0.0002868 -0.0 -7.1e-05 0.0

model_1/dense_5/BiasAdd/ReadVariableOp/resource f2 [64]
000000 ad 18 29 18 c6 18 0b 18 9c 19 c5 16 14 16 da 18
       0.002283 0.002031 0.00233 0.001974 0.002739 0.001653 0.001484 0.002369
000010 12 1a 00 80 a8 18 d8 18 5e 19 3e 18 14 18 ac 17
       0.002964 -0.0 0.002274 0.002365 0.00262 0.002071 0.001991 0.001873
000020 2c 17 16 17 24 1a 61 18 6c 18 4f 19 1e 18 ba 18
       0.001751 0.00173 0.002998 0.002138 0.00216 0.002592 0.00201 0.002308
000030 4b 18 e5 16 86 18 68 18 38 18 43 18 5e 19 7b 19
       0.002096 0.001683 0.002209 0.002151 0.00206 0.00208 0.00262 0.002676
000040 9b 18 10 18 00 00 48 1a 00 00 3e 19 68 18 48 1a
       0.002249 0.001984 0.0 0.003067 0.0 0.00256 0.002151 0.003067
000050 5d 18 18 19 85 1a 7c 19 82 18 6e 17 26 1a 4b 18
       0.00213 0.002487 0.003183 0.002678 0.002201 0.001814 0.003002 0.002096
000060 19 17 89 19 2c 18 f0 18 a9 18 cd 19 00 80 68 18
       0.001733 0.002703 0.002037 0.00241 0.002275 0.002832 -0.0 0.002151
000070 65 18 da 19 48 18 07 1a 07 18 67 18 e7 18 40 19
       0.002146 0.002857 0.00209 0.002943 0.001966 0.00215 0.002394 0.002563

model_1/dense_6/BiasAdd/ReadVariableOp/resource f2 [32]
000000 ff 1f 19 20 27 1f 60 20 0e 20 54 20 c1 1f 2d 20
       0.00781 0.008 0.006985 0.008545 0.00792 0.00845 0.007572 0.008156
000010 e6 1f 55 20 69 20 c1 1f 88 1e 59 20 04 1b f3 1b
       0.007713 0.00846 0.00861 0.007572 0.00638 0.00849 0.003426 0.003881
000020 52 20 48 20 bc 1e ec 1f 7c 1f 12 20 b0 1e 32 1f
       0.00844 0.00836 0.006577 0.007736 0.00731 0.00795 0.00653 0.007027
000030 ec 1f 2e 20 1e 20 71 1e 57 20 f5 1f 07 20 7c 1f
       0.007736 0.00816 0.00804 0.00629 0.00848 0.00777 0.007866 0.00731

model_1/dense_4/MatMul f2 [256, 256]
000000 b9 16 dd 16 bb 16 d4 16 d8 15 f5 16 42 16 0d 92
       0.001641 0.001676 0.001643 0.001667 0.001427 0.0016985 0.001528 -0.0007386
000010 d2 16 a3 91 df 93 d4 92 f7 15 ea 15 95 16 54 16
       0.001665 -0.000688 -0.000961 -0.0008335 0.001456 0.001444 0.001607 0.001545
000020 64 94 f6 8f 5e 16 ac 16 bb 92 e0 17 55 16 cd 93
       -0.001072 -0.000486 0.0015545 0.001629 -0.0008216 0.001923 0.001546 -0.0009522
000030 b1 91 46 17 a0 94 0e 88 7c 16 57 91 b2 91 2a 93
       -0.0006948 0.001776 -0.001129 -0.0001237 0.001583 -0.000652 -0.000695 -0.0008745
000040 2a 16 54 17 74 14 e9 91 06 92 f3 15 1d 90 27 16
       0.001505 0.001789 0.001087 -0.0007215 -0.0007353 0.001452 -0.000502 0.001502
000050 3d 16 69 92 18 91 44 94 e1 90 6c 15 68 17 4e 93
       0.001523 -0.0007825 -0.000622 -0.001041 -0.0005956 0.001324 0.001808 -0.0008917
000060 2e 17 03 16 11 15 a5 16 d7 90 29 94 0c 92 9e 90
       0.001753 0.001468 0.001237 0.001622 -0.000591 -0.001016 -0.000738 -0.0005636
000070 38 94 6d 91 94 91 fb 16 af 92 6f 8f f2 92 b1 94
       -0.00103 -0.0006623 -0.000681 0.001704 -0.000816 -0.0004537 -0.000848 -0.001145
000080 fb 92 0a 92 db 15 4b 93 b7 15 2f 18 df 17 db 91
       -0.000852 -0.000737 0.00143 -0.0008903 0.001395 0.002043 0.001922 -0.000715
000090 6a 94 27 16 f2 14 18 92 1c 17 87 15 83 93 13 92
       -0.001078 0.001502 0.001207 -0.000744 0.001736 0.001349 -0.000917 -0.0007415
0000a0 c3 16 6e 16 34 94 13 17 cd 92 09 18 88 93 b0 92
       0.001651 0.00157 -0.001026 0.001727 -0.00083 0.00197 -0.0009193 -0.0008163
0000b0 77 17 0b 93 20 92 7d 16 c0 16 76 91 9b 16 22 15
       0.001822 -0.0008597 -0.0007477 0.001584 0.001648 -0.0006666 0.001613 0.001253
0000c0 da 15 b7 91 62 17 64 94 22 15 12 17 a4 16 ce 90
       0.001429 -0.0006976 0.001802 -0.001072 0.001253 0.001726 0.001621 -0.0005865
0000d0 80 15 ab 15 43 93 49 94 c6 16 7e 15 88 92 2d 15
       0.001343 0.001384 -0.0008864 -0.001046 0.001654 0.001341 -0.0007973 0.001264
0000e0 78 92 7e 93 32 18 4e 91 00 94 77 92 71 17 43 17
       -0.0007896 -0.0009146 0.002048 -0.0006475 -0.000977 -0.000789 0.001817 0.001773
0000f0 14 94 93 16 73 16 b3 93 74 16 cd 16 e6 16 35 94
       -0.000996 0.001605 0.0015745 -0.00094 0.001575 0.00166 0.001684 -0.001027
000100 5b 17 a7 16 45 16 fa 15 df 8e e3 15 65 93 46 95
       0.001796 0.001624 0.001531 0.001459 -0.0004194 0.001437 -0.0009027 -0.001287
000110 ca 16 28 93 96 17 69 18 22 94 a4 93 b0 16 48 17
       0.0016575 -0.0008736 0.001852 0.002153 -0.001009 -0.0009327 0.001633 0.001778
000120 7c 93 2d 17 0b 94 b8 91 89 93 94 16 b4 17 b8 15
       -0.0009136 0.001752 -0.000987 -0.000698 -0.00092 0.001606 0.001881 0.001396
000130 ba 93 de 90 d3 16 a1 16 28 93 a2 93 ad 92 39 94
       -0.000943 -0.000594 0.001666 0.001618 -0.0008736 -0.0009317 -0.000815 -0.001031
000140 25 17 32 92 74 16 b8 16 21 93 23 94 32 92 a3 15
       0.001744 -0.0007563 0.001575 0.00164 -0.00087 -0.00101 -0.0007563 0.001376
000150 21 94 0b 94 95 16 f9 16 66 16 32 93 99 17 41 16
       -0.001008 -0.000987 0.001607 0.001702 0.001562 -0.0008783 0.001855 0.001527
000160 6e 92 ad 15 26 92 cf 91 58 17 8b 92 2b 93 1f 16
       -0.000785 0.001386 -0.0007505 -0.000709 0.001793 -0.0007987 -0.000875 0.001494
000170 8e 91 ff 17 b3 93 40 8e a1 93 37 16 3d 16 2e 94
       -0.000678 0.001952 -0.00094 -0.0003815 -0.0009313 0.001517 0.001523 -0.00102
000180 03 92 28 16 03 91 73 16 44 92 86 15 0c 16 fc 16
       -0.000734 0.001503 -0.000612 0.0015745 -0.000765 0.0013485 0.001476 0.001705
000190 99 17 ed 90 69 18 43 17 dd 16 0c 17 46 16 3d 17
       0.001855 -0.0006013 0.002153 0.001773 0.001676 0.00172 0.001532 0.001767
0001a0 48 92 d4 92 3f 92 b2 15 b2 17 9f 16 65 92 ee 16
       -0.0007668 -0.0008335 -0.0007625 0.00139 0.001879 0.0016165 -0.0007806 0.001692
0001b0 47 16 88 8f 14 17 28 16 f4 16 12 16 81 15 09 93
       0.001533 -0.0004597 0.001728 0.001503 0.001698 0.001482 0.001344 -0.000859
0001c0 48 91 84 15 1f 16 57 17 19 17 8e 91 68 95 97 91
       -0.0006447 0.001347 0.001494 0.001792 0.001733 -0.000678 -0.00132 -0.0006824
0001d0 60 90 74 17 dc 16 16 92 50 15 52 17 cb 16 1f 15
       -0.000534 0.00182 0.001675 -0.000743 0.001297 0.001787 0.001658 0.00125
0001e0 15 17 f6 17 4c 92 b6 16 2e 94 96 15 17 93 fb 15
       0.001729 0.001944 -0.0007687 0.001638 -0.00102 0.001364 -0.0008655 0.00146
0001f0 74 15 8d 16 86 16 61 93 89 91 20 17 f0 15 f3 15
       0.001331 0.001599 0.001593 -0.0009007 -0.0006757 0.0017395 0.00145 0.001452

model_1/dense_5/MatMul f2 [64, 256]
000000 b6 1b 62 92 00 80 00 80 a7 19 75 91 a5 1a 00 00
       0.003765 -0.000779 -0.0 -0.0 0.00276 -0.000666 0.003244 0.0
000010 a5 19 cc 1c f8 1c 00 00 00 80 00 00 00 80 24 1d
       0.002756 0.004684 0.004852 0.0 -0.0 0.0 -0.0 0.00502
000020 00 00 c3 94 73 1b 54 92 0c 1c 00 00 64 91 00 80
       0.0 -0.001163 0.003637 -0.0007725 0.003952 0.0 -0.000658 -0.0
000030 00 80 75 1c 3e 93 6e 1c 00 00 9e 92 00 00 e1 91
       -0.0 0.004353 -0.000884 0.004326 0.0 -0.000808 0.0 -0.0007176
000040 77 93 00 00 b0 19 89 1c ce 1b 00 00 c4 1a 73 90
       -0.000911 0.0 0.002777 0.00443 0.00381 0.0 0.003304 -0.000543
000050 8c 91 83 92 2f 92 00 80 c4 1b 77 96 09 1b e1 93
       -0.000677 -0.000795 -0.000755 -0.0 0.003792 -0.001578 0.003435 -0.000962
000060 13 19 00 00 00 00 24 94 18 94 05 1a 6d 1b 00 00
       0.002478 0.0 0.0 -0.001011 -0.000999 0.00294 0.003626 0.0
000070 7d 91 de 1b ab 1a 43 94 00 00 37 1c 00 00 00 80
       -0.00067 0.003841 0.003256 -0.00104 0.0 0.004116 0.0 -0.0
000080 e3 92 68 94 00 80 00 80 00 80 72 1a 00 00 df 92
       -0.0008407 -0.001076 -0.0 -0.0 -0.0 0.003147 0.0 -0.0008388
000090 6d 91 cf 92 00 80 be 1a 00 80 be 18 00 00 7d 94
       -0.0006623 -0.000831 -0.0 0.003292 -0.0 0.002316 0.0 -0.001096
0000a0 00 80 9e 1a 00 00 12 93 00 80 15 94 00 80 00 00
       -0.0 0.003231 0.0 -0.000863 -0.0 -0.000997 -0.0 0.0
0000b0 00 00 00 00 00 80 02 92 17 90 00 00 89 93 00 00
       0.0 0.0 -0.0 -0.0007334 -0.0004992 0.0 -0.00092 0.0
0000c0 f9 91 07 93 00 00 24 94 88 1a ef 19 9f 94 e0 94
       -0.000729 -0.000858 0.0 -0.001011 0.00319 0.002897 -0.001128 -0.00119
0000d0 7c 94 4f 1b e6 1b 00 00 29 92 2f 93 fd 92 00 80
       -0.001095 0.003569 0.003857 0.0 -0.000752 -0.000877 -0.000853 -0.0
0000e0 00 00 00 00 42 94 4c 1a 8c 1c 91 91 23 93 dc 91
       0.0 0.0 -0.0010395 0.003075 0.00444 -0.0006795 -0.000871 -0.0007153
0000f0 00 00 00 80 e0 94 2f 1a 3f 94 00 80 48 93 7d 95
       0.0 -0.0 -0.00119 0.00302 -0.001037 -0.0 -0.000889 -0.00134
000100 06 95 ed 19 00 00 4f 93 ea 1a 00 00 58 92 16 1c
       -0.001226 0.002893 0.0 -0.000892 0.003376 0.0 -0.0007744 0.00399
000110 24 90 ab 1b 00 00 00 00 ca 95 00 00 00 80 ee 92
       -0.0005054 0.003744 0.0 0.0 -0.001413 0.0 -0.0 -0.000846
000120 ca 94 00 80 4c 93 2b 1b 00 80 e4 1b 00 80 00 00
       -0.001169 -0.0 -0.0008907 0.0035 -0.0 0.003853 -0.0 0.0
000130 c1 92 34 1c 22 1b 4b 93 0d 1c 00 00 96 8d 06 90
       -0.0008245 0.004105 0.003483 -0.0008903 0.003956 0.0 -0.000341 -0.000491
000140 b4 92 97 1a 71 90 00 80 00 80 00 00 70 1b b1 94
       -0.0008183 0.003218 -0.000542 -0.0 -0.0 0.0 0.003632 -0.001145
000150 b5 94 75 90 21 93 00 00 00 00 00 00 00 80 00 80
       -0.001149 -0.000544 -0.00087 0.0 0.0 0.0 -0.0 -0.0
000160 91 1a 7b 91 00 00 00 00 5e 1a 66 90 1c 1c 79 90
       0.003206 -0.000669 0.0 0.0 0.003109 -0.000537 0.004013 -0.000546
000170 00 00 00 00 ab 1b c1 1b ab 1b 92 91 00 80 00 00
       0.0 0.0 0.003744 0.003786 0.003744 -0.00068 -0.0 0.0
000180 00 00 6c 95 00 80 a9 93 0b 80 d2 19 ba 95 00 80
       0.0 -0.001324 -0.0 -0.000935 -6.6e-07 0.002842 -0.001398 -0.0
000190 00 80 00 00 00 80 00 00 12 94 18 1b af 91 00 80
       -0.0 0.0 -0.0 0.0 -0.000994 0.003464 -0.000694 -0.0
0001a0 00 00 00 00 00 80 f1 1a 00 80 00 80 00 80 00 80
       0.0 0.0 -0.0 0.00339 -0.0 -0.0 -0.0 -0.0
0001b0 00 00 00 00 00 00 c3 94 20 1a ab 92 b9 92 14 93
       0.0 0.0 0.0 -0.001163 0.00299 -0.000814 -0.0008206 -0.000864
0001c0 05 1b 29 94 0a 1c 00 00 da 18 52 90 c6 93 38 1b
       0.003428 -0.001016 0.003944 0.0 0.002369 -0.0005274 -0.000949 0.003525
0001d0 00 80 00 80 4a 93 00 00 04 91 8c 1a 00 80 77 94
       -0.0 -0.0 -0.00089 0.0 -0.0006123 0.003197 -0.0 -0.00109
0001e0 00 00 75 1c 00 00 e2 1b 00 00 00 00 00 80 7c 1b
       0.0 0.004353 0.0 0.003849 0.0 0.0 -0.0 0.003654
0001f0 38 1a 85 97 88 91 60 94 35 1b 00 80 8a 19 00 80
       0.003036 -0.001836 -0.000675 -0.001068 0.00352 -0.0 0.002705 -0.0

model_1/dense_6/MatMul f2 [32, 64]
000000 4c 1f 95 1e 03 1f 2b 9b 15 9b 59 1e 0c 1f ea 1e
       0.007126 0.006428 0.006847 -0.0035 -0.003458 0.0062 0.00688 0.006752
000010 52 9a 00 00 6f 1f aa 9b 28 1f c2 9a 07 9c 2c 1f
       -0.003086 0.0 0.00726 -0.003742 0.00699 -0.0033 -0.003933 0.007004
000020 9a 9b bd 1e e3 9b d6 9b 65 9b aa 1e 76 9b 12 1f
       -0.003712 0.00658 -0.00385 -0.003826 -0.00361 0.006508 -0.003643 0.006905
000030 f8 1d ee 1d 5e 1f 4e 1f 03 1e aa 9a 8c 9b 78 9b
       0.00583 0.00579 0.007195 0.007133 0.00587 -0.003254 -0.003685 -0.003647
000040 ce 1f 83 1f 00 00 c1 1e 00 80 ed 1f 8f 20 33 9a
       0.00762 0.007336 0.0 0.006596 -0.0 0.00774 0.0089 -0.003027
000050 51 9a 0d 9b 19 9c 2b 9c 78 9a bb 1e 02 9c be 1e
       -0.003084 -0.003443 -0.004 -0.00407 -0.003159 0.006573 -0.003914 0.006584
000060 64 1e c2 9b 6b 9b 3f 1e 7b 9a bc 1f 00 80 bc 1e
       0.00624 -0.003788 -0.003622 0.0061 -0.003164 0.007553 -0.0 0.006577
000070 cc 1f 73 1f 1d 9a ab 1e 4d 1e 8d 1e 82 1f cf 9a
       0.007614 0.007275 -0.002985 0.00651 0.006153 0.006397 0.00733 -0.003325
000080 7f 1f 7c 1e 0c 1f 45 9b 98 9a f5 1e dd 1e f4 1e
       0.00732 0.006332 0.00688 -0.00355 -0.00322 0.006794 0.006702 0.00679
000090 e9 9a 00 00 5c 1f ac 9b b6 1f 84 9a 3a 9c 08 1f
       -0.003374 0.0 0.007187 -0.003746 0.00753 -0.003181 -0.004128 0.006866
0000a0 a3 9b 5a 1f ea 9b bf 9b fd 9a ca 1e 34 9b b4 1e
       -0.003729 0.00718 -0.003864 -0.003782 -0.003412 0.00663 -0.003517 0.006546
0000b0 c7 1d 2b 1e 9b 1f 0f 20 3d 1e 8a 9a c2 9b 60 9b
       0.005642 0.006023 0.007427 0.00793 0.006092 -0.003193 -0.003788 -0.003601
0000c0 c9 1f c6 1e 00 00 6f 1f 00 80 e2 1f e2 1f 69 9a
       0.007603 0.006615 0.0 0.00726 -0.0 0.007698 0.007698 -0.00313
0000d0 da 99 99 9a 0b 9c e5 9b 61 9a d4 1e 2e 9c d8 1e
       -0.002857 -0.003222 -0.00395 -0.003855 -0.003115 0.006668 -0.00408 0.006683
0000e0 09 1e af 9b ad 9a a4 1e 20 9a 9b 1f 00 80 93 1e
       0.005894 -0.003752 -0.00326 0.006485 -0.00299 0.007427 -0.0 0.00642
0000f0 57 1f 5d 1f a2 9a 34 1f 3d 1e 5a 1e 8e 1f cb 9a
       0.007168 0.00719 -0.003239 0.007034 0.006092 0.006203 0.007378 -0.003317
000100 0e 1f f4 1d 1f 1f 82 9b 24 9b 24 1e 81 1e fc 1e
       0.00689 0.005814 0.006954 -0.003666 -0.003487 0.005997 0.00635 0.00682
000110 28 9b 00 00 ca 1e 98 9b 94 1f 31 9b 1f 9c 8a 1e
       -0.003494 0.0 0.00663 -0.003708 0.0074 -0.003511 -0.004025 0.006386
000120 87 9b 41 1f 03 9c bb 9b 18 9b 01 1f e7 9a 94 1e
       -0.003675 0.007084 -0.003918 -0.003775 -0.003464 0.00684 -0.00337 0.006424
000130 e0 1d 32 1e 2c 1f 27 1f 9d 1e da 9a cf 9b 19 9b
       0.005737 0.00605 0.007004 0.006985 0.00646 -0.003345 -0.003813 -0.003466
000140 6d 1f e7 1e 00 00 1a 1f 00 80 8e 1f 93 1f 97 99
       0.00725 0.00674 0.0 0.006935 -0.0 0.007378 0.007397 -0.00273
000150 9d 9a dd 9a c3 9b 16 9c bc 9a f4 1e 3d 9c a9 1e
       -0.00323 -0.003351 -0.00379 -0.00399 -0.003288 0.00679 -0.00414 0.006504
000160 5b 1e 01 9c ba 9a 76 1e a6 9a 79 1f 00 80 46 1e
       0.006207 -0.00391 -0.003284 0.00631 -0.003246 0.007298 -0.0 0.006126
000170 57 1f 42 1f b8 9a d9 1e 41 1e 99 1e 10 1f 60 9b
       0.007168 0.007088 -0.00328 0.006687 0.006107 0.006443 0.006897 -0.003601
000180 f0 9a 83 9a 16 9a d2 1d b6 1c d0 99 5c 9a 03 9b
       -0.003387 -0.00318 -0.002972 0.005684 0.0046 -0.002838 -0.003105 -0.003424
000190 ce 1c 00 80 dd 9a 88 1d e0 9a 7f 1d 02 1e 0d 9b
       0.004692 -0.0 -0.003351 0.0054 -0.003357 0.005367 0.005867 -0.003443
0001a0 06 1e 70 9a e0 1d f1 1d 7b 1d 6d 9a 0f 1e b5 99
       0.005882 -0.003143 0.005737 0.005802 0.005352 -0.003138 0.005917 -0.002787
0001b0 33 99 fe 99 27 9a 9f 9a e3 99 55 1d 89 1d 74 1d
       -0.002539 -0.002926 -0.003004 -0.003233 -0.002874 0.005207 0.005405 0.005325
0001c0 8e 9a 3e 9a 00 80 92 9a 00 80 f3 9a 7d 9a bf 1c
       -0.0032 -0.003048 -0.0 -0.003208 -0.0 -0.003393 -0.003168 0.004635
0001d0 f4 1c 72 1d ee 1e 9b 1e eb 1c 15 9a db 1d de 99
       0.004837 0.005318 0.006767 0.00645 0.004803 -0.00297 0.00572 -0.002865
0001e0 ae 99 fd 1d 9a 1d 0b 9a 10 1d 7d 9b 00 80 04 99
       -0.002773 0.005848 0.00547 -0.00295 0.004944 -0.003656 -0.0 -0.002449
0001f0 d7 9a 28 9b 19 1d 7b 9a 58 99 35 9a 74 9a cb 1c
       -0.00334 -0.003494 0.00498 -0.003164 -0.00261 -0.00303 -0.00315 0.00468

model_1/dense_7/MatMul f2 [1, 32]
000000 cc 38 98 38 5c 39 43 b7 ce b8 19 34 44 b9 51 38
       0.5996 0.574 0.67 -0.4539 -0.6006 0.256 -0.658 0.5396
000010 f8 38 d4 b7 ea 37 55 b6 62 b3 17 37 7f 2e 1e af
       0.621 -0.4893 0.4946 -0.3958 -0.2307 0.443 0.1015 -0.1112
000020 9e 36 b2 35 eb b9 04 b8 0e 39 03 b6 bd b9 29 b4
       0.4136 0.356 -0.7397 -0.502 0.632 -0.3757 -0.7173 -0.26
000030 4c 38 37 38 0f 38 ab ba 6e 37 38 38 d6 b6 50 b9
       0.537 0.527 0.5073 -0.8335 0.4644 0.5273 -0.4272 -0.664

model_1/separable_conv2d/separable_conv2d/depthwise1 f2 [1, 3, 3, 3]
000000 09 b6 91 b3 89 36 bf b1 ee ae 14 b3 a5 33 fa b3
       -0.3772 -0.2365 0.4084 -0.1796 -0.1083 -0.2212 0.2389 -0.2493
000010 1d 37 1d 35 a8 31 94 b5 3c 2f e5 20 77 2c 8f 2d
       0.4446 0.3196 0.1768 -0.3486 0.11304 0.00956 0.06976 0.08685
000020 08 b5 89 28 60 b0 98 b4 8d a3 9a b5 b8 32 7f b0
       -0.3145 0.03543 -0.1367 -0.287 -0.01475 -0.35 0.21 -0.1405
000030 5b 33 b3 2f 25 b3
       0.2299 0.1203 -0.2233

model_1/separable_conv2d/separable_conv2d f2 [16, 1, 1, 3]
000000 9e c8 80 40 ff cb 17 cc 1a 3b ad 39 a3 c5 6d 42
       -9.234 2.25 -15.99 -16.36 0.8877 0.7095 -5.637 3.213
000010 87 c8 f9 37 c7 c5 17 44 4e 40 a7 44 70 48 ef 3f
       -9.055 0.4983 -5.777 4.09 2.152 4.652 8.875 1.983
000020 9a c6 67 bf 26 3f eb c5 8c 43 56 44 eb c5 2b 38
       -6.6 -1.851 1.787 -5.918 3.773 4.336 -5.918 0.521
000030 78 c5 94 c4 53 46 06 47 15 c6 c5 42 cf 41 9c 45
       -5.47 -4.58 6.324 7.023 -6.082 3.385 2.904 5.61
000040 ad 45 07 34 98 c4 eb c2 a6 34 ba c5 cc 45 fb 46
       5.676 0.2517 -4.594 -3.459 0.2905 -5.727 5.797 6.98
000050 b0 be ff 49 71 c5 8a 46 2f 3a 13 45 cf 43 b9 3f
       -1.672 11.99 -5.44 6.54 0.773 5.074 3.904 1.931

model_1/separable_conv2d_1/separable_conv2d/depthwise f2 [16]
000000 00 00 00 00 00 00 00 00 00 00 00 00 00 00 00 00
       0.0 0.0 0.0 0.0 0.0 0.0 0.0 0.0
000010 00 00 00 00 00 00 00 00 00 00 00 00 00 00 00 00
       0.0 0.0 0.0 0.0 0.0 0.0 0.0 0.0

model_1/separable_conv2d_1/separable_conv2d/depthwise1 f2 [1, 3, 3, 16]
000000 6e 2f 67 31 9c 29 13 2a fc a9 88 2f 5a af 42 b1
       0.1161 0.1688 0.04382 0.04745 -0.04675 0.1177 -0.11487 -0.1643
000010 5e ae f5 28 df aa af 2a 02 2e 29 25 aa 32 9e 30
       -0.0995 0.03873 -0.05368 0.05222 0.0939 0.02016 0.2083 0.1443
000020 9c 2d 1e b0 eb 2c 2c 29 d9 26 7d 30 20 2f 8d aa
       0.08765 -0.1287 0.07684 0.0404 0.02675 0.1403 0.1113 -0.05118
000030 11 2a 3d 2c 52 24 94 2c 70 31 18 ae 86 a2 52 31
       0.0474 0.0662 0.01688 0.07153 0.1699 -0.0952 -0.01274 0.1663
000040 ef b1 e8 b3 ae 29 e6 af bc a3 fd 30 31 b1 08 30
       -0.1854 -0.2471 0.04437 -0.1234 -0.01511 0.1559 -0.1622 0.126
000050 97 1e a2 b2 8e ac a0 ae 4a af a8 b2 3d 30 fb af
       0.006435 -0.2073 -0.07117 -0.1035 -0.1139 -0.208 0.1324 -0.1247
000060 7e ac 46 ad e4 aa 70 b0 10 30 4c ac 9f af 4a 2e
       -0.0702 -0.0824 -0.05383 -0.1387 0.127 -0.06714 -0.1191 0.09827
000070 c0 2d c0 af 71 ac 3c ad d5 a6 da b2 a6 b0 89 30
       0.08984 -0.1211 -0.0694 -0.0818 -0.02669 -0.2141 -0.1453 0.1417
000080 6f 33 c0 9f 26 29 a2 2e a7 a8 c3 2e 9d 30 05 a8
       0.2323 -0.00757 0.04022 0.10364 -0.03635 0.10565 0.1442 -0.0314
000090 52 af 0e 31 4e b1 25 32 05 28 c9 a1 cf 30 3c 1f
       -0.1144 0.158 -0.1658 0.192 0.0314 -0.0113 0.1503 0.007065
0000a0 87 af ab ae 42 af 2d 2f 05 2c 53 b0 eb 30 57 30
       -0.1176 -0.1042 -0.1134 0.1121 0.0628 -0.1351 0.1537 0.1356
0000b0 47 b0 0a b1 f8 b0 15 30 2a 2c eb 2e 91 32 33 ab
       -0.1337 -0.1575 -0.1553 0.1276 0.06506 0.1081 0.2052 -0.05624
0000c0 33 2a a5 af 31 15 48 b1 a3 27 de b1 c1 a3 ea 2e
       0.04843 -0.11945 0.001267 -0.165 0.02983 -0.1833 -0.015144 0.10803
0000d0 29 b1 78 23 e3 b1 2d 30 d2 2a dc aa 7e 28 98 31
       -0.1613 0.01459 -0.184 0.1305 0.05328 -0.0536 0.0351 0.1748
0000e0 e0 2b 9d 30 52 ae ed ae 6b 32 49 b0 bf ad 84 30
       0.06152 0.1442 -0.09875 -0.1082 0.2006 -0.1339 -0.0898 0.1411
0000f0 72 b0 f3 30 a3 a2 16 31 01 ae da b1 f2 2f 4b ac
       -0.1389 0.1547 -0.01296 0.1589 -0.0938 -0.1829 0.12415 -0.0671
000100 c4 a8 cb a8 78 b3 dd b0 6c 2f 4b 24 0d 28 40 a6
       -0.03723 -0.03745 -0.2334 -0.152 0.11597 0.01677 0.03165 -0.02441
000110 44 b1 78 af 5f af 83 ad 91 ac d7 af f5 2d 11 b1
       -0.1646 -0.1167 -0.1152 -0.0861 -0.07135 -0.1225 0.0931 -0.1583

model_1/separable_conv2d_1/separable_conv2d f2 [32, 1, 1, 16]
000000 90 41 2d 3b 5d c3 f7 3c 23 be e7 c1 23 41 f6 b2
       2.781 0.897 -3.682 1.241 -1.534 -2.951 2.568 -0.2175
000010 ba 36 12 aa 8c c3 58 3d 12 3d f4 40 e1 c1 e9 c0
       0.4204 -0.04742 -3.773 1.336 1.268 2.477 -2.94 -2.455
000020 25 bd 2d 3e b5 3c a8 ac d5 3d 1a 41 3d b8 82 3c
       -1.286 1.544 1.177 -0.07275 1.458 2.55 -0.53 1.127
000030 c3 bf 60 c0 97 b2 5f c0 c5 bf 5b be 44 3e 2f 37
       -1.94 -2.188 -0.2059 -2.186 -1.942 -1.589 1.566 0.449
000040 2e 34 4d 43 d8 44 d0 c0 c9 c0 6b bb fd ac a0 42
       0.2612 3.65 4.844 -2.406 -2.393 -0.9272 -0.07794 3.312
000050 af 40 a2 38 8e c3 1b bd 59 c5 44 3c a4 bf dc c4
       2.342 0.579 -3.777 -1.276 -5.348 1.066 -1.91 -4.86
000060 90 b9 bb b5 23 31 20 36 b5 39 d1 b2 ab b3 69 b8
       -0.6953 -0.3582 0.1605 0.3828 0.7134 -0.213 -0.2396 -0.5513
000070 6c 36 73 35 86 ba 1c ab 62 b8 53 34 5a 38 2b ba
       0.4014 0.3406 -0.8154 -0.05554 -0.548 0.2703 0.544 -0.771
000080 35 bd 65 36 7d 43 bd 35 4c 41 95 41 04 3f ce c0
       -1.302 0.3997 3.744 0.3586 2.648 2.791 1.754 -2.402
000090 62 bf 72 bc 43 3e a4 ba 4d 3e ce b8 c6 b5 87 41
       -1.846 -1.111 1.565 -0.83 1.575 -0.6006 -0.3608 2.764
0000a0 ab bd f8 bd 22 b2 ed bd 95 3d 94 bb 5a bd f6 3f
       -1.417 -1.492 -0.1917 -1.481 1.3955 -0.9473 -1.338 1.99
0000b0 4e 36 61 b7 3e b4 73 3d 18 b0 03 bf ca ab bb 37
       0.394 -0.4612 -0.2651 1.362 -0.1279 -1.753 -0.06085 0.4832
0000c0 d3 3a 40 33 7f b9 42 3c f6 bd c9 39 bf 24 b1 bb
       0.853 0.2266 -0.687 1.064 -1.49 0.723 0.01854 -0.9614
0000d0 54 3a c1 3b e1 a9 cc bb 0f 32 6b b6 b9 37 ab a8
       0.791 0.969 -0.04593 -0.9746 0.1893 -0.4011 0.4827 -0.03647
0000e0 6e c0 d9 bd 27 b8 4d bd f8 33 a8 38 3b 41 64 3e
       -2.215 -1.462 -0.519 -1.325 0.249 0.582 2.615 1.598
0000f0 0e bb 03 a0 b8 3c c3 bd 7c 3e 5a 3e a7 b1 eb 3d
       -0.882 -0.007835 1.18 -1.44 1.621 1.588 -0.1766 1.4795
000100 3c 3b 17 b2 fe 32 ac ba 7e 3d f6 37 6a ba ce 37
       0.9043 -0.1903 0.2185 -0.834 1.373 0.4976 -0.802 0.4878
000110 96 3c 84 bc dc b0 1e bb 85 3c 2d 3c e2 3b b3 bb
       1.146 -1.129 -0.1519 -0.8896 1.13 1.044 0.9854 -0.9624
000120 bf 2a 51 bc ce 3e bb bb 90 b6 d7 40 3f 34 58 bc
       0.0527 -1.079 1.701 -0.9663 -0.4102 2.42 0.2654 -1.086
000130 bb bc 4d bc e4 32 19 34 f7 bf 18 40 2f b9 e3 bb
       -1.183 -1.075 0.2153 0.256 -1.991 2.047 -0.648 -0.986
000140 18 38 2c bb da 37 72 35 96 ba 09 3c 7e 3c 48 31
       0.5117 -0.8965 0.4907 0.3403 -0.823 1.009 1.123 0.165
000150 09 bb 70 b8 3e b1 8e 3a b2 b8 13 ba 11 b9 0d b6
       -0.8794 -0.5547 -0.1638 0.8193 -0.587 -0.7593 -0.6333 -0.3782
000160 f3 2d 6f bc 33 26 b6 b5 1f 38 4d b4 3a 3a b1 b9
       0.09296 -1.108 0.02422 -0.357 0.515 -0.2688 0.7783 -0.7114
000170 e9 b9 3c 31 2c bb 93 ba 42 39 ea af 9a 3c a4 b4
       -0.739 0.1636 -0.8965 -0.822 0.657 -0.12366 1.15 -0.29
000180 a4 3e 98 44 48 bd d0 b7 44 32 53 bd 56 c2 ff c2
       1.66 4.594 -1.32 -0.4883 0.1958 -1.331 -3.168 -3.498
000190 b4 c0 b8 be 7a 41 f8 be 9b c3 2a 43 b7 2f 5d 30
       -2.352 -1.68 2.738 -1.742 -3.803 3.582 0.12054 0.1364
0001a0 f9 3c a7 40 07 40 bb 3a 05 c1 13 40 63 b3 21 21
       1.243 2.326 2.014 0.8413 -2.51 2.037 -0.2308 0.01002
0001b0 29 bb cb a6 d3 b8 1d c0 69 c0 84 be 98 40 14 b9
       -0.895 -0.02654 -0.603 -2.057 -2.205 -1.629 2.297 -0.635
0001c0 27 c0 03 bc fd b8 6a c0 e8 b8 98 44 58 c2 fe c3
       -2.076 -1.003 -0.6235 -2.207 -0.6133 4.594 -3.172 -3.996
0001d0 c5 bf 0d 41 39 c3 b9 be 5e 44 e6 3d e4 c0 4f c3
       -1.942 2.525 -3.611 -1.681 4.367 1.475 -2.445 -3.654
0001e0 7f bd 89 44 0e 41 c3 c0 a1 c1 84 c0 a0 bc 94 40
       -1.374 4.535 2.527 -2.38 -2.814 -2.258 -1.156 2.29
0001f0 86 42 4b ba 26 42 02 b6 35 c0 7b 38 b8 41 5d 43
       3.262 -0.7866 3.074 -0.3755 -2.104 0.56 2.86 3.682

model_1/separable_conv2d_2/separable_conv2d/depthwise f2 [32]
000000 00 00 00 00 00 00 00 00 00 00 00 00 00 00 00 00
       0.0 0.0 0.0 0.0 0.0 0.0 0.0 0.0
000010 00 00 00 00 00 00 00 00 00 00 00 00 00 00 00 00
       0.0 0.0 0.0 0.0 0.0 0.0 0.0 0.0
000020 00 00 00 00 00 00 00 00 00 00 00 00 00 00 00 00
       0.0 0.0 0.0 0.0 0.0 0.0 0.0 0.0
000030 00 00 00 00 00 00 00 00 00 00 00 00 00 00 00 00
       0.0 0.0 0.0 0.0 0.0 0.0 0.0 0.0

model_1/separable_conv2d_2/separable_conv2d/depthwise1 f2 [1, 3, 3, 32]
000000 79 2c 5f 2f 1c a4 26 a5 f0 ae 96 ac a7 2c 24 28
       0.0699 0.1152 -0.01605 -0.02011 -0.1084 -0.07166 0.0727 0.03235
000010 2e 2e 32 31 4a 2e 42 9c ea b0 35 a4 27 af 4a a2
       0.09656 0.1624 0.09827 -0.004158 -0.1536 -0.01643 -0.11176 -0.01228
000020 4b ad 0b 23 ee ac 28 2e 1a 31 76 30 5f 27 a0 a1
       -0.0827 0.013756 -0.077 0.0962 0.1594 0.1394 0.0288 -0.01099
000030 3c af 76 ad cb 30 a0 2e fd ad 8b 31 8b 30 6e ab
       -0.11304 -0.0853 0.1498 0.1035 -0.09357 0.1732 0.142 -0.05804
000040 66 b0 46 af 81 2d 59 ad e0 a1 2a 2d 85 ae 75 29
       -0.1375 -0.11365 0.086 -0.08356 -0.011475 0.0807 -0.10187 0.04263
000050 53 2f 48 af 06 2e 12 ac cd a6 33 af e0 a6 2d 2b
       0.11444 -0.1138 0.0941 -0.0636 -0.02657 -0.1125 -0.02686 0.05606
000060 1d af 3b 21 b5 af 0f 2d ec 2f 43 ad 72 2c df 2a
       -0.11115 0.010216 -0.1204 0.07904 0.1238 -0.0822 0.06946 0.05368
000070 86 25 c8 30 d3 af d7 26 8d 2e 73 b0 35 30 b4 a7
       0.02158 0.1494 -0.12225 0.02672 0.10236 -0.139 0.1315 -0.03009
000080 87 2f e6 2e 4c b0 5d ab 9f 31 01 a8 80 ac 08 24
       0.1176 0.1078 -0.1343 -0.05753 0.1757 -0.03128 -0.0703 0.01575
000090 b7 99 3f a8 a7 2f e6 20 8d 22 30 2d 01 30 47 ab
       -0.00279 -0.03317 0.11957 0.00957 0.012794 0.08105 0.1251 -0.05685
0000a0 3c 2c 93 2f 3d a8 e6 a5 1b b0 18 a2 19 ad 0c 2f
       0.06616 0.11835 -0.0331 -0.02304 -0.1283 -0.0119 -0.07965 0.1101
0000b0 06 ab 14 2a 33 23 d8 1e ac a6 05 ae f0 2a fd 25
       -0.05487 0.0475 0.01406 0.006683 -0.02606 -0.09406 0.0542 0.02339
0000c0 37 1c 5d 9b 73 28 db 26 cc a8 08 2d a6 a7 1b b0
       0.004116 -0.003595 0.03476 0.02678 -0.03748 0.0786 -0.02988 -0.1283
0000d0 87 27 38 31 94 b0 9e ae 42 30 7b 29 fc 2e 7a 30
       0.0294 0.1631 -0.1431 -0.1034 0.133 0.04282 0.10913 0.1399
0000e0 f5 a9 75 a7 f4 2f c1 2e de 1d f6 ae 87 20 1c b0
       -0.04654 -0.02913 0.12427 0.1055 0.00573 -0.10876 0.00884 -0.1284
0000f0 5a ae e8 2e fa af a7 21 2d a8 be 2f 60 a9 cf ac
       -0.09924 0.1079 -0.12463 0.01104 -0.03262 0.121 -0.042 -0.07513
000100 d1 30 3e 1f 19 31 fe ac 87 9e 72 2b 23 ac b0 ad
       0.1505 0.007072 0.1593 -0.078 -0.006374 0.05817 -0.06464 -0.08887
000110 bb 9f f3 a9 12 2d a4 a6 2d 9c de a9 c4 1f 3b 30
       -0.00755 -0.04648 0.0792 -0.02594 -0.004078 -0.04584 0.007584 0.1322
000120 f7 2e b0 23 2a 2e 34 aa 96 2a d2 2c 6f 2a 3a 2d
       0.1088 0.015015 0.0963 -0.04846 0.05145 0.0753 0.05026 0.08167
000130 de 27 72 04 6b 29 ec af bc a6 67 a5 c9 b0 8a 2e
       0.03073 6.783e-05 0.04233 -0.1238 -0.0263 -0.0211 -0.1495 0.1022
000140 c7 2c 18 aa 0d ad fa 27 cf a9 50 2e 84 2f 9c 2d
       0.07465 -0.0476 -0.0789 0.03116 -0.04538 0.09863 0.11743 0.08765
000150 ff a4 9e ab 87 9e 65 31 58 32 a6 a7 dd 26 74 b0
       -0.01952 -0.0595 -0.006374 0.1686 0.1982 -0.02988 0.02681 -0.1392
000160 41 30 a3 25 8f a9 e4 b0 13 2d f8 b0 c8 ab 09 ab
       0.1329 0.02202 -0.04343 -0.1528 0.0793 -0.1553 -0.0608 -0.05496
000170 aa 2c 58 26 02 ae c1 b0 df af 61 26 00 30 57 b0
       0.0729 0.02478 -0.0939 -0.1486 -0.123 0.02492 0.125 -0.1356
000180 a2 1a 16 2e 7c a6 13 2e 9f 24 8e ae 69 25 09 ac
       0.003239 0.0951 -0.02533 0.0949 0.01805 -0.1024 0.02113 -0.06305
000190 3b 88 eb 2a 18 25 55 1c 14 aa d6 30 d3 2e dd a9
       -0.0001291 0.05405 0.0199 0.00423 -0.0475 0.1511 0.1066 -0.0458
0001a0 3c 2f 79 25 9d 30 57 31 f4 a3 76 aa 1b ac 79 30
       0.11304 0.02138 0.1442 0.1669 -0.01553 -0.05048 -0.06415 0.1398
0001b0 a9 af 71 2e a8 2e 97 a2 66 25 aa a8 78 ae 0a 2e
       -0.1197 0.10065 0.104 -0.01287 0.02109 -0.03644 -0.1011 0.09436
0001c0 d6 ad 20 a5 7b ad d9 2c 96 aa ec ae 06 2e 41 b0
       -0.0912 -0.02002 -0.08563 0.07574 -0.05145 -0.10815 0.0941 -0.1329
0001d0 9a 2e 57 ae 7c 26 51 a4 73 ad 58 ad 8d a3 6b ad
       0.10315 -0.09906 0.02533 -0.01686 -0.08514 -0.0835 -0.01475 -0.08466
0001e0 4b 2a 29 b0 11 ac ff ad ad aa a7 29 08 ab 2a ae
       0.04916 -0.13 -0.06354 -0.0937 -0.05215 0.04416 -0.05493 -0.0963
0001f0 d8 2d 3d 24 fd af 69 ad 6f 30 f0 a7 a5 ad f5 26
       0.0913 0.01656 -0.1248 -0.08453 0.1385 -0.031 -0.0882 0.02718

model_1/separable_conv2d_2/separable_conv2d f2 [64, 1, 1, 32]
000000 28 33 9b 35 10 3f 29 bb a0 40 64 c0 34 c0 1b ba
       0.2236 0.3503 1.766 -0.895 2.312 -2.195 -2.102 -0.763
000010 c0 be b6 b7 d7 bb 5f be 33 bc 70 b9 0d be 39 34
       -1.6875 -0.482 -0.98 -1.593 -1.05 -0.6797 -1.513 0.264
000020 c4 bf d4 3c 88 33 f8 3f 49 aa 25 b6 5b b8 f7 b2
       -1.941 1.207 0.2354 1.992 -0.0491 -0.384 -0.5444 -0.2177
000030 b2 be 73 be 64 b8 f8 3e 9b b8 31 bc 0d ab 8a bc
       -1.674 -1.612 -0.549 1.742 -0.5757 -1.048 -0.05508 -1.135
000040 f4 3c c5 bd 08 bf 7c 2e 0b 39 6d ba 24 3c 1f b8
       1.238 -1.442 -1.758 0.1013 0.6304 -0.803 1.035 -0.515
000050 95 39 6c 3c 0a 3c a5 bd d1 b7 b8 ae 3b 3a 7e be
       0.6978 1.105 1.01 -1.411 -0.4885 -0.105 0.779 -1.623
000060 52 35 7e 36 7f b7 8a c0 00 b9 32 3c ff 3a 00 3b
       0.3325 0.4058 -0.4685 -2.27 -0.625 1.049 0.8745 0.875
000070 4e bd 0b 35 d2 bc 45 b1 38 ba 64 bb 52 37 cf bc
       -1.326 0.3152 -1.205 -0.1647 -0.7773 -0.924 0.4575 -1.202
000080 e7 b9 76 bd 1f bd 79 31 1b b8 07 36 f6 b6 67 b9
       -0.738 -1.365 -1.28 0.171 -0.513 0.3767 -0.435 -0.6753
000090 be b9 fe bd d6 36 71 3d 85 bc 11 33 d6 b6 05 35
       -0.718 -1.498 0.4272 1.36 -1.13 0.2208 -0.4272 0.3137
0000a0 00 3a 9c bd 63 36 45 b7 5e bc a6 37 fe 3e 71 b4
       0.75 -1.402 0.3992 -0.4543 -1.092 0.478 1.748 -0.2776
0000b0 1d b8 06 3b cc 3b b6 37 bf bc 7f 3b 59 b1 29 b8
       -0.514 0.878 0.9746 0.482 -1.187 0.937 -0.1671 -0.52
0000c0 87 3c 19 b8 5d 3d 8b 39 e6 bc 4e 3b 68 30 b0 bb
       1.132 -0.512 1.341 0.693 -1.225 0.913 0.1377 -0.961
0000d0 7a b9 06 38 f5 3d 95 38 d3 b0 bb 37 13 b3 9c 3d
       -0.6846 0.503 1.489 0.5728 -0.1508 0.4832 -0.2211 1.402
0000e0 00 b0 45 3c 1f 39 94 2e 0c bf 82 3c 40 bd ee 30
       -0.125 1.067 0.64 0.1028 -1.762 1.127 -1.3125 0.154
0000f0 9e 3c b1 af 47 c1 ef b3 1e 3c 25 3e 0c c0 81 bb
       1.154 -0.1202 -2.639 -0.2479 1.029 1.536 -2.023 -0.938
000100 e8 bf e6 ba 7c 37 d7 41 41 bb d4 bc ae 37 51 be
       -1.977 -0.8623 0.4678 2.92 -0.9067 -1.207 0.48 -1.579
000110 46 35 ea ba fe b5 b3 41 8c c1 28 38 a9 bc 72 38
       0.3296 -0.8643 -0.3745 2.85 -2.773 0.5195 -1.165 0.5557
000120 f4 35 4e b8 35 3f 15 b6 9f be 9c c1 18 c0 2e bb
       0.372 -0.538 1.802 -0.3801 -1.655 -2.805 -2.047 -0.8975
000130 25 3c b2 bf 79 c1 01 c1 71 35 58 3c fa 39 5c c1
       1.036 -1.924 -2.736 -2.502 0.34 1.086 0.747 -2.68
000140 aa ad aa 3d f2 40 1a 40 7b c0 3e 38 6c 3d bc a7
       -0.0885 1.416 2.473 2.05 -2.24 0.5303 1.355 -0.03021
000150 32 3d bc ba b5 38 df 3a fa bf f3 3d ba 36 6c 3e
       1.299 -0.842 0.5884 0.859 -1.994 1.487 0.4204 1.605
000160 9f be a5 b8 00 3b c0 b8 cf 3c 8b be 94 b7 82 b8
       -1.655 -0.5806 0.875 -0.5938 1.202 -1.636 -0.4736 -0.5635
000170 04 3c 74 b7 3b b4 14 3f 29 38 8b 3f 62 3c ab 3f
       1.004 -0.4658 -0.2644 1.77 0.52 1.886 1.096 1.917
000180 cd 3c e5 3a 41 b5 3d 39 a4 bb 53 b9 b4 32 51 be
       1.2 0.862 -0.3284 0.655 -0.955 -0.6655 0.2095 -1.579
000190 c9 ba 5a b7 60 3d 08 38 58 3b 7b bf 5c 3e 32 3b
       -0.848 -0.4595 1.344 0.504 0.918 -1.87 1.59 0.8994
0001a0 c7 bc 9b 3a 1b 2e 80 b9 2f bf 44 3d 80 bd 9f 3d
       -1.194 0.8257 0.0954 -0.6875 -1.796 1.316 -1.375 1.405
0001b0 cd 3c 26 3c b1 3d aa bc 45 b6 8d b9 09 32 1b 37
       1.2 1.037 1.423 -1.166 -0.3918 -0.694 0.1886 0.444
0001c0 1d 35 83 36 51 3d 0f bc bf 40 e3 be 0a 3c b9 bc
       0.3196 0.407 1.329 -1.015 2.373 -1.722 1.01 -1.181
0001d0 65 37 d9 c0 10 3c 47 3c fa 3e 76 b6 e1 b5 99 3e
       0.4622 -2.424 1.016 1.069 1.744 -0.4038 -0.3674 1.649
0001e0 66 b6 e0 bf 6d b8 8e bd 4f 40 4f 3b b4 3e 65 33
       -0.4 -1.969 -0.553 -1.389 2.154 0.9136 1.676 0.2311
0001f0 b5 38 b0 3b f3 be 2d 3e 4e bd bc ad 2b 3f bb bd
       0.5884 0.961 -1.737 1.544 -1.326 -0.0896 1.792 -1.433

model_1/separable_conv2d_3/separable_conv2d/depthwise f2 [64]
000000 00 00 00 00 00 00 00 00 00 00 00 00 00 00 00 00
       0.0 0.0 0.0 0.0 0.0 0.0 0.0 0.0
000010 00 00 00 00 00 00 00 00 00 00 00 00 00 00 00 00
       0.0 0.0 0.0 0.0 0.0 0.0 0.0 0.0
000020 00 00 00 00 00 00 00 00 00 00 00 00 00 00 00 00
       0.0 0.0 0.0 0.0 0.0 0.0 0.0 0.0
000030 00 00 00 00 00 00 00 00 00 00 00 00 00 00 00 00
       0.0 0.0 0.0 0.0 0.0 0.0 0.0 0.0
000040 00 00 00 00 00 00 00 00 00 00 00 00 00 00 00 00
       0.0 0.0 0.0 0.0 0.0 0.0 0.0 0.0
000050 00 00 00 00 00 00 00 00 00 00 00 00 00 00 00 00
       0.0 0.0 0.0 0.0 0.0 0.0 0.0 0.0
000060 00 00 00 00 00 00 00 00 00 00 00 00 00 00 00 00
       0.0 0.0 0.0 0.0 0.0 0.0 0.0 0.0
000070 00 00 00 00 00 00 00 00 00 00 00 00 00 00 00 00
       0.0 0.0 0.0 0.0 0.0 0.0 0.0 0.0

model_1/separable_conv2d_3/separable_conv2d/depthwise1 f2 [1, 3, 3, 64]
000000 d0 a8 a8 19 b4 24 60 a5 38 29 4a 30 0c a8 22 a2
       -0.0376 0.002762 0.01837 -0.021 0.04077 0.134 -0.03162 -0.01198
000010 fc 23 92 ad 60 a7 e9 2b c5 ac a1 2e 6d ad 7a aa
       0.015594 -0.08704 -0.02881 0.0618 -0.0745 0.1036 -0.0848 -0.0506
000020 08 2c b5 a3 ac ab 5d a1 7e 9d 1c ae dc ad 80 24
       0.063 -0.01505 -0.05994 -0.010475 -0.005363 -0.09546 -0.09155 0.01758
000030 01 2c c2 a2 0e 28 c7 24 c7 22 be a2 02 a7 db 26
       0.06256 -0.0132 0.03168 0.01866 0.01324 -0.01317 -0.02737 0.02678
000040 4e a3 1d 2e f1 a8 e1 2d a7 ae 3a 2d b5 aa 96 ad
       -0.01427 0.0955 -0.0386 0.09186 -0.10394 0.08167 -0.0524 -0.0873
000050 12 ad cb a7 3c a0 5c a1 14 a8 97 2f 54 ac e7 28
       -0.0792 -0.03044 -0.00827 -0.01047 -0.03186 0.1186 -0.0676 0.0383
000060 0d 2d 76 a9 89 a8 97 ac 19 9a 65 b0 f8 26 76 a8
       0.0789 -0.04266 -0.03543 -0.0717 -0.002977 -0.1373 0.02722 -0.03485
000070 ea 09 b4 2a c6 a3 ea ac a1 30 f1 a5 c0 a9 0e 2a
       0.0001805 0.05237 -0.01518 -0.0768 0.1447 -0.02321 -0.04492 0.0473
000080 76 21 f9 ac 15 ad b8 ae be ae 83 2d bb 24 65 2e
       0.010666 -0.0777 -0.0794 -0.105 -0.10535 0.0861 0.01848 0.0999
000090 6e ac ea ad 03 a8 f5 26 86 28 9c a7 73 b0 4b af
       -0.0692 -0.0924 -0.03134 0.02718 0.03534 -0.02972 -0.139 -0.11395
0000a0 a0 22 bc 28 0b 24 33 ae 6e ae e4 a8 71 b0 0c 2a
       0.01294 0.037 0.0158 -0.09686 -0.10046 -0.0382 -0.1388 0.04724
0000b0 57 2c 2b ad a6 a8 bf a4 6e a4 de 2b 81 2c c2 2b
       0.0678 -0.08075 -0.03632 -0.01854 -0.0173 0.06146 0.0704 0.0606
0000c0 83 21 b7 ac 5b af 32 2c f3 ac 22 2e aa ac b5 2a
       0.010765 -0.07367 -0.1149 0.06555 -0.07733 0.0958 -0.0729 0.0524
0000d0 89 ae 8c ae 68 22 3a aa f2 ae 5a 2d e6 ac ca a1
       -0.1021 -0.1023 0.01251 -0.04865 -0.1085 0.0836 -0.07654 -0.01131
0000e0 16 2b 2b aa e0 ad ce aa 71 27 77 a9 3e 2d 93 2e
       0.05536 -0.0482 -0.0918 -0.05316 0.02907 -0.0427 0.0819 0.1027
0000f0 16 2c 78 29 49 a0 cb ac d8 a9 88 2d 06 ab 8c 2b
       0.06384 0.04272 -0.00837 -0.0749 -0.04565 0.0864 -0.05487 0.05896
000100 44 ae eb ac 28 ae d7 29 46 a9 59 29 fa 9c e7 2a
       -0.0979 -0.07684 -0.0962 0.04562 -0.0412 0.04178 -0.00486 0.05392
000110 41 2d ea a8 8e aa 9e ac 8a 9c f7 aa 8e ad da 28
       0.0821 -0.0384 -0.0512 -0.07214 -0.004433 -0.0544 -0.0868 0.0379
000120 54 a8 e8 a5 2a 2e 29 ae b3 af 7d a9 5e 2b e0 a3
       -0.0338 -0.02307 0.0963 -0.09625 -0.1203 -0.04288 0.05756 -0.01538
000130 4d ad ab 99 81 ab 4e 30 a1 ab 80 12 42 29 37 09
       -0.0828 -0.002768 -0.05862 0.1345 -0.0596 0.0007935 0.04108 0.0001591
000140 58 2a 80 2c ed af a9 27 ad 29 2c a7 68 25 64 2d
       0.04956 0.0703 -0.12384 0.02992 0.04434 -0.02802 0.02112 0.0842
000150 9a 29 c5 23 fa a5 84 ad 2c a1 7b 2a 99 28 d3 2c
       0.04376 0.015175 -0.02335 -0.0862 -0.0101 0.05063 0.03592 0.0754
000160 66 ad 63 af 32 ad 2c b0 ab 1f 1a 2e 75 26 4d 9d
       -0.08435 -0.1154 -0.0812 -0.1304 0.00749 0.09534 0.02522 -0.005177
000170 4c 2e fe a8 5c af e4 2d 15 28 53 28 b6 1a 7f 16
       0.0984 -0.039 -0.115 0.09204 0.0319 0.03378 0.003277 0.001586
000180 46 30 4b 2a cf 2c 82 a4 6a af 34 1c 01 ad 48 9d
       0.1335 0.04916 0.07513 -0.01761 -0.11584 0.004105 -0.0782 -0.005157
000190 a0 2f 75 29 2c 26 ac a8 cf ac 03 af 8e a8 de af
       0.11914 0.04263 0.02411 -0.0365 -0.07513 -0.10956 -0.03558 -0.1229
0001a0 3f aa dd ac 3c 2b 5e 25 66 ad d1 a1 c5 ae 31 a6
       -0.0488 -0.076 0.05652 0.02097 -0.08435 -0.01136 -0.1058 -0.02419
0001b0 00 a7 1b 2f b8 2f 63 a2 60 a1 35 2c 0e 2c 5b ab
       -0.02734 0.111 0.1206 -0.012474 -0.0105 0.06573 0.06335 -0.05746
0001c0 4a 28 06 2c c5 21 bf 29 d6 a4 53 a9 61 2d 96 ae
       0.0335 0.06287 0.01127 0.0449 -0.01889 -0.0416 0.08405 -0.1029
0001d0 c0 a2 2a 2c ee a8 2e 2f 2a 2e 4e 2d ad ac 31 b0
       -0.01318 0.06506 -0.0385 0.1122 0.0963 0.0829 -0.07306 -0.131
0001e0 89 2c 83 2b 49 ac 23 2f de ae 40 2c c1 2b a8 12
       0.07086 0.0587 -0.06696 0.1115 -0.1073 0.0664 0.06058 0.0008125
0001f0 f5 af d6 21 8a 2a 8d 2a 50 a7 d6 af ad 8c c4 2a
       -0.1243 0.0114 0.0511 0.05118 -0.02856 -0.12244 -0.0002854 0.05286

model_1/separable_conv2d_3/separable_conv2d f2 [128, 1, 1, 64]
000000 8c 3b 0b b0 08 37 5c 3d c3 b6 8e 37 ef b0 64 b4
       0.9434 -0.1263 0.4395 1.34 -0.4226 0.4722 -0.1542 -0.2744
000010 47 37 79 b3 4f bc d1 b8 d7 39 32 39 81 ba eb b6
       0.4548 -0.2335 -1.077 -0.602 0.73 0.6494 -0.813 -0.4324
000020 ef b4 e6 a8 f1 39 21 bb 7d 3a 70 b3 32 26 fc 36
       -0.3083 -0.03827 0.7427 -0.891 0.811 -0.2324 0.0242 0.4365
000030 34 b4 87 b9 3c bb 40 21 d4 34 3c b9 70 38 ef b6
       -0.2627 -0.691 -0.9043 0.010254 0.3018 -0.6543 0.5547 -0.4333
000040 37 35 79 35 08 32 f6 bb 14 37 50 bc 82 3b 7f bc
       0.326 0.342 0.1885 -0.995 0.4424 -1.078 0.9385 -1.124
000050 37 bc 6a 38 7a 36 d0 bc 4f a4 d0 b9 b9 38 bb b8
       -1.054 0.552 0.4048 -1.203 -0.01683 -0.7266 0.5903 -0.5913
000060 56 ba 51 b9 fc 3d 80 b9 d3 2d 4b 35 cf ba c6 38
       -0.792 -0.6646 1.496 -0.6875 0.091 0.3308 -0.851 0.5967
000070 2d bd 60 b6 55 3c c0 bc 76 30 aa b9 05 34 d8 b9
       -1.294 -0.3984 1.083 -1.1875 0.1394 -0.708 0.2512 -0.7305
000080 79 3c a6 ac cd 3a 27 37 e8 3a cc b4 63 ba d1 b8
       1.118 -0.07263 0.85 0.447 0.8633 -0.2998 -0.7983 -0.602
000090 26 32 15 b9 0b 3b be 39 7b b8 cd 37 78 3a 6c 3c
       0.1921 -0.6353 0.8804 0.718 -0.56 0.4875 0.8086 1.105
0000a0 b6 36 45 3a fa 34 31 3c 56 3d bb 9f e7 b8 1a 38
       0.4194 0.7837 0.311 1.048 1.334 -0.00755 -0.613 0.5127
0000b0 40 b9 1a 3a 10 3a 4b ba 36 39 69 34 9e 3b aa 3b
       -0.6562 0.7627 0.758 -0.7866 0.6514 0.2756 0.952 0.958
0000c0 02 34 9e 3a a0 3c 44 b7 28 b7 68 b9 c9 3e 86 b2
       0.2505 0.827 1.156 -0.454 -0.4473 -0.676 1.696 -0.2039
0000d0 8f b9 f7 b2 ab b0 a1 b8 7a bc 07 ba cf 38 30 33
       -0.695 -0.2177 -0.1459 -0.5786 -1.119 -0.7534 0.601 0.2246
0000e0 04 37 ec 36 1d 32 6f bb 8c 3b 4f a7 d7 3a 80 bc
       0.4385 0.4326 0.191 -0.929 0.9434 -0.02855 0.855 -1.125
0000f0 b7 ba 01 b0 92 b8 8b bd d8 2b 65 ad 49 bc 6e 3c
       -0.8394 -0.1251 -0.5713 -1.386 0.06128 -0.0843 -1.071 1.107
000100 a5 36 1d b3 1a be 84 39 14 b9 68 a3 07 36 4e 39
       0.4153 -0.2223 -1.525 0.6895 -0.635 -0.014465 0.3767 0.663
000110 8b 2d 16 27 44 bd 92 b4 74 a9 4b be a9 b7 30 38
       0.0866 0.02768 -1.316 -0.2856 -0.0426 -1.573 -0.4788 0.5234
000120 b5 3c d7 39 58 bb 6c bc c3 b1 08 39 3b 3c 00 b6
       1.177 0.73 -0.918 -1.105 -0.18 0.629 1.058 -0.375
000130 45 b8 d0 b2 f4 3c ae bc 2c b9 d0 39 64 3d 3b b6
       -0.5337 -0.2129 1.238 -1.17 -0.6465 0.7266 1.348 -0.3894
000140 a6 b1 61 36 1b ab bd bc 02 bd 17 b8 f0 b5 0e 3b
       -0.1765 0.3987 -0.0555 -1.185 -1.252 -0.511 -0.371 0.882
000150 63 b5 fb b0 5d ad 87 ae 1e 3c e7 bc f1 b8 a5 b1
       -0.3367 -0.1556 -0.0838 -0.102 1.029 -1.226 -0.6177 -0.1764
000160 b5 3d 9d 35 8a c0 d0 3a a9 38 fb be 5f 32 79 36
       1.427 0.3508 -2.27 0.8516 0.5825 -1.745 0.1991 0.4045
000170 0a b4 f4 b5 bf bd 4c bd 5e 3b f8 b8 73 3c 3c 38
       -0.2524 -0.372 -1.437 -1.324 0.921 -0.621 1.112 0.5293
000180 13 b3 24 bd 2c b5 c2 ba fa b9 0c b4 03 99 e3 2d
       -0.2211 -1.285 -0.3232 -0.8447 -0.747 -0.253 -0.002447 0.092
000190 02 bc 47 9e 00 3d ac 39 e2 34 24 3b 84 3a dc 38
       -1.002 -0.00613 1.25 0.709 0.3052 0.8926 0.8145 0.6074
0001a0 fa 3a 74 b4 2a 29 3c b6 a5 31 f1 b8 92 38 48 2d
       0.872 -0.2783 0.04034 -0.3896 0.1764 -0.6177 0.5713 0.0825
0001b0 4d b6 05 3c fb 25 b7 b4 fd 39 4b 32 a8 ba f7 37
       -0.3938 1.005 0.02336 -0.2947 0.7485 0.1967 -0.832 0.4978
0001c0 b2 b9 dc 34 84 b6 89 38 bd 3a 08 b4 dd a2 e2 36
       -0.712 0.3037 -0.4072 0.567 0.8423 -0.252 -0.013405 0.4302
0001d0 e9 ba b2 39 17 bc 55 38 77 bc 9b 3a bd 3c 53 28
       -0.864 0.712 -1.022 0.5415 -1.116 0.8257 1.185 0.03378
0001e0 09 b8 ca 39 19 bd ed bc a1 b3 8e 33 b8 b8 10 2c
       -0.5044 0.7236 -1.274 -1.231 -0.2384 0.2361 -0.59 0.0635
0001f0 fc 36 24 35 64 b6 5c 30 7b b9 0f 1b 72 2c e7 37
       0.4365 0.3213 -0.3994 0.1362 -0.685 0.003447 0.06946 0.494

model_1/separable_conv2d_4/separable_conv2d/depthwise f2 [128]
000000 00 00 00 00 00 00 00 00 00 00 00 00 00 00 00 00
       0.0 0.0 0.0 0.0 0.0 0.0 0.0 0.0
000010 00 00 00 00 00 00 00 00 00 00 00 00 00 00 00 00
       0.0 0.0 0.0 0.0 0.0 0.0 0.0 0.0
000020 00 00 00 00 00 00 00 00 00 00 00 00 00 00 00 00
       0.0 0.0 0.0 0.0 0.0 0.0 0.0 0.0
000030 00 00 00 00 00 00 00 00 00 00 00 00 00 00 00 00
       0.0 0.0 0.0 0.0 0.0 0.0 0.0 0.0
000040 00 00 00 00 00 00 00 00 00 00 00 00 00 00 00 00
       0.0 0.0 0.0 0.0 0.0 0.0 0.0 0.0
000050 00 00 00 00 00 00 00 00 00 00 00 00 00 00 00 00
       0.0 0.0 0.0 0.0 0.0 0.0 0.0 0.0
000060 00 00 00 00 00 00 00 00 00 00 00 00 00 00 00 00
       0.0 0.0 0.0 0.0 0.0 0.0 0.0 0.0
000070 00 00 00 00 00 00 00 00 00 00 00 00 00 00 00 00
       0.0 0.0 0.0 0.0 0.0 0.0 0.0 0.0
000080 00 00 00 00 00 00 00 00 00 00 00 00 00 00 00 00
       0.0 0.0 0.0 0.0 0.0 0.0 0.0 0.0
000090 00 00 00 00 00 00 00 00 00 00 00 00 00 00 00 00
       0.0 0.0 0.0 0.0 0.0 0.0 0.0 0.0
0000a0 00 00 00 00 00 00 00 00 00 00 00 00 00 00 00 00
       0.0 0.0 0.0 0.0 0.0 0.0 0.0 0.0
0000b0 00 00 00 00 00 00 00 00 00 00 00 00 00 00 00 00
       0.0 0.0 0.0 0.0 0.0 0.0 0.0 0.0
0000c0 00 00 00 00 00 00 00 00 00 00 00 00 00 00 00 00
       0.0 0.0 0.0 0.0 0.0 0.0 0.0 0.0
0000d0 00 00 00 00 00 00 00 00 00 00 00 00 00 00 00 00
       0.0 0.0 0.0 0.0 0.0 0.0 0.0 0.0
0000e0 00 00 00 00 00 00 00 00 00 00 00 00 00 00 00 00
       0.0 0.0 0.0 0.0 0.0 0.0 0.0 0.0
0000f0 00 00 00 00 00 00 00 00 00 00 00 00 00 00 00 00
       0.0 0.0 0.0 0.0 0.0 0.0 0.0 0.0

model_1/separable_conv2d_4/separable_conv2d/depthwise1 f2 [1, 3, 3, 128]
000000 e3 2a af 22 04 a9 e3 95 8a 0e 10 2c 99 a5 fd ac
       0.0538 0.013054 -0.03918 -0.001437 0.000399 0.0635 -0.02187 -0.07794
000010 43 2d 9f a1 05 21 9f 27 1a 25 7a 2f 9c a8 f0 22
       0.0822 -0.01098 0.0098 0.02977 0.01993 0.1168 -0.036 0.01355
000020 93 aa 71 2c 52 27 40 a7 9e 1d 13 a4 5c 2c 21 2b
       -0.05136 0.0694 0.0286 -0.02832 0.005486 -0.01591 0.0681 0.0557
000030 05 25 1a 28 cc a7 43 a3 d8 29 22 27 98 a8 55 2c
       0.0196 0.03204 -0.03046 -0.01418 0.04565 0.02786 -0.0359 0.0677
000040 f7 29 07 2e d0 a5 f2 21 94 2b 67 2c 89 ac 83 ac
       0.0466 0.0942 -0.0227 0.01161 0.0592 0.0688 -0.07086 -0.0705
000050 ef a8 71 25 6f a8 73 a2 8f a9 3b ac 32 29 17 af
       -0.03854 0.02126 -0.03464 -0.012596 -0.04343 -0.0661 0.0406 -0.1108
000060 38 ab 88 1a 8d a9 bf a0 ce 9b 7a 21 3b a8 4a a5
       -0.0564 0.00319 -0.04337 -0.00927 -0.00381 0.0107 -0.03305 -0.02066
000070 8d a7 6d a8 16 23 ed aa 69 aa a6 a9 32 2c e2 28
       -0.0295 -0.03458 0.01384 -0.0541 -0.05008 -0.04413 0.06555 0.03815
000080 db 2b 18 1f fc a6 bf a7 c6 a4 5c 2c d5 9e 80 ad
       0.06137 0.006927 -0.02728 -0.03026 -0.01865 0.0681 -0.00667 -0.08594
000090 0d 28 67 90 de aa 84 25 52 ac 43 25 9d 2c 61 9c
       0.03165 -0.0005374 -0.05365 0.02155 -0.0675 0.02055 0.0721 -0.004276
0000a0 dd a1 79 24 36 a2 61 25 31 a3 e9 27 1d 28 ed 28
       -0.01145 0.01747 -0.01213 0.02101 -0.014046 0.0309 0.03214 0.03848
0000b0 1a 1c dd a2 ae ad 21 30 74 25 b1 21 0f a7 ae a6
       0.004005 -0.013405 -0.08875 0.129 0.0213 0.011116 -0.02757 -0.0261
0000c0 0a 2c 41 a6 2d ae 2c a2 ab 26 d8 a9 e9 a9 50 2c
       0.0631 -0.02443 -0.0965 -0.012054 0.02605 -0.04565 -0.04617 0.0674
0000d0 6b 96 df 27 16 a8 e6 2c 04 a8 f2 a6 0d a7 db b0
       -0.001567 0.03075 -0.03192 0.07654 -0.03137 -0.02713 -0.02754 -0.1517
0000e0 b4 9a 18 a4 a2 29 c2 2d f2 a4 5f 9f 8a a0 ed ac
       -0.003273 -0.01599 0.044 0.08997 -0.01932 -0.0072 -0.008865 -0.07697
0000f0 19 ac 28 a5 b2 ae 3e 28 8c b0 96 a0 eb a9 e6 ac
       -0.064 -0.02014 -0.1046 0.03314 -0.1421 -0.00896 -0.04623 -0.07654
000100 4f 2c 1d 2a 3b ae 48 24 80 2c 5a 8b 6d a7 51 2c
       0.0673 0.04776 -0.09735 0.01672 0.0703 -0.0002244 -0.029 0.06744
000110 0d 29 cb 2c b9 9c 82 29 0d ac 79 2e 46 2a 18 2a
       0.03946 0.0749 -0.004612 0.04303 -0.0633 0.10114 0.049 0.0476
000120 88 ad 4e a2 92 29 fd 25 3c 24 e5 a1 94 29 9a ac
       -0.0864 -0.012314 0.04352 0.02339 0.01654 -0.01151 0.04358 -0.0719
000130 34 a1 3b a2 8d 23 6d a8 d3 29 28 1c 6a 29 5a 2c
       -0.01016 -0.01217 0.01475 -0.03458 0.0455 0.00406 0.0423 0.068
000140 63 29 99 9e 9b 97 04 9d c1 25 1e 2b 20 23 af 9e
       0.04208 -0.006443 -0.001857 -0.004898 0.02248 0.0556 0.013916 -0.006527
000150 d2 a2 8d 9a fa aa bd 28 c3 2c 5d ad 37 29 d1 a6
       -0.01332 -0.003199 -0.0545 0.03702 0.0744 -0.0838 0.04074 -0.02663
000160 83 ac e1 ac 5e a9 a7 a9 e7 2c 3f 2c e5 28 09 29
       -0.0705 -0.07623 -0.04193 -0.04416 0.0766 0.06635 0.03824 0.03934
000170 e5 23 68 2f 61 a7 9b aa 5f 29 05 9d 6f 28 a5 2b
       0.01542 0.1157 -0.02882 -0.0516 0.04196 -0.0049 0.03464 0.05972
000180 be 2c e1 ab 94 2c 97 18 da ad 52 28 d6 29 3e a9
       0.0741 -0.06155 0.07153 0.002241 -0.09143 0.03375 0.0456 -0.04095
000190 29 2c d6 a7 e3 a9 a0 ad 00 ad 84 9f 91 2a 8f 2e
       0.065 -0.03061 -0.046 -0.0879 -0.0781 -0.00734 0.0513 0.1025
0001a0 e9 aa 16 2d 6d ac 62 a5 54 26 e1 a5 6c 1d 6a ab
       -0.054 0.07947 -0.06915 -0.02103 0.02472 -0.02296 0.005295 -0.05792
0001b0 a8 aa 10 25 a1 28 f8 1d ed 24 35 2b bd 20 08 2c
       -0.052 0.01978 0.03616 0.00583 0.01924 0.0563 0.009254 0.063
0001c0 50 25 57 a7 5f a9 03 a4 28 2a ad ac 57 a5 17 a8
       0.02075 -0.02867 -0.04196 -0.01567 0.0481 -0.07306 -0.02086 -0.03195
0001d0 63 1c 7f a7 fb ad 26 29 3c a0 bc ab 9c 2c ef a7
       0.004284 -0.02928 -0.09344 0.04022 -0.00827 -0.06042 0.072 -0.03099
0001e0 7a a7 07 29 8d a4 9b 2b 0a a5 e0 ab 8d a2 73 ad
       -0.0292 0.03928 -0.01778 0.05942 -0.01968 -0.06152 -0.012794 -0.08514
0001f0 df 1c 8c ab e6 28 97 2c b0 9c 30 ad e6 22 29 a9
       0.004757 -0.05896 0.03827 0.0717 -0.004578 -0.08105 0.01347 -0.0403
