app/src/main/assets/model_lite_age_nonq.tflite (tflite, 807788 bytes, 31 tensors)

model_1/dense_4/BiasAdd/ReadVariableOp/resource f4 [256]
00000000: c80b 03b8 b573 a739 1446 8506 ea0e 1d88
00000010: c6af 92b8 4f9f 62b9 187e 8a39 9859 9c92
00000020: e239 27b9 2f86 d1b9 bca4 11ba 8052 8007
00000030: 9ed2 3988 a071 8823 8c54 eb07 9159 cfb7
00000040: fcb3 2891 c2d2 e9b8 046e 86b7 c2de 8d38
00000050: ad45 a838 3c7b 0d1d 66ae ee37 ad55 099f
00000060: 89b4 1122 68fa c9b8 ceb9 7739 bda9 b2b9
00000070: 6123 ee14 fad3 f037 b9a9 0025 1e5d af39
00000080: 109d a9b5 8d56 ad07 72b9 66b7 3c53 a7b9
00000090: ed78 9239 a4c6 1f86 e20d 81b9 d4ea 0f39
000000a0: 48c6 ac38 1f12 6439 e0d2 17b8 d7b0 5b0e
000000b0: 65eb cdb9 f377 7eb7 eb5e afb9 e54c 09b9
000000c0: 223f 8a38 5a12 1b87 fe6b 729d 4a02 1d39
000000d0: 3a42 dc38 02e5 7db8 44b5 0aba 22dc 4a07
000000e0: aa9b bfb9 1894 b0b9 8e87 bdb8 18cb 8eb9
000000f0: 2a71 0387 3671 e2b9 7035 eb05 8c24 e98e
00000100: 9581 a738 cf7b bfb8 97de 8f07 e0a8 6186
00000110: 205b 6805 7d0a 30b9 f40a 95a1 8e4d f9b8
00000120: ea0a da38 b04b 84b9 7d66 1607 4894 6fb9
00000130: 006e 0f08 bacd 98b8 9890 f986 813a 6939
00000140: 7d79 e107 49bb b6b9 db05 2988 f87c 9437
00000150: 705f 3887 941e 37b9 3ffc 9e15 c1c0 2088
00000160: f2be f30c e882 1f07 975c 7911 5554 c4b7
00000170: 2f8f 0039 bad4 3887 9d16 97b9 d0dd a505
00000180: ec11 3cb8 eaba 3db9 2c14 6687 1a6d cc37
00000190: 4a6e 40b9 c028 09ba b21a 8639 8467 8438
000001a0: d1cc 8fb9 21d0 18b9 64e6 c338 8cd4 15a1
000001b0: dbec e838 4a43 8739 0790 c1b9 9994 c687
000001c0: a31b 3008 aab7 1591 5b22 0139 41ea a3b9
000001d0: c703 0db9 2655 85b9 8ef3 b338 0704 a2b8
000001e0: 3fda 1a07 cd28 8387 5037 6fb8 e20b 70b9
000001f0: d58d 1db9 cd8e de22 7bfb 58b8 bf84 d9b9
00000200: d09a 8639 8d67 ccb9 6ad3 b707 ecca 91b8
00000210: e3c7 09b9 4225 5987 63b0 a4b8 0cd8 dab8
00000220: 5d8b 11b8 fa6e 6038 ca2e be2a 3035 031c
00000230: 91d7 9939 a28a 0388 3c81 a206 bcec 8eb6
00000240: 8745 b039 ecfc f699 a271 8cb9 ca4b d6b8
00000250: c3fc bb91 0f16 9cb7 86a7 2c08 00ab ee24
00000260: eac7 03b9 7ef6 b438 2c8f c1b9 b578 d0b8
00000270: a6da edb9 32c2 e887 1df0 18b9 fb6e a2b9
00000280: 6bf1 2739 58f3 10b9 6e01 1f37 1a16 0d88
00000290: 841f fc30 5674 1e08 637c a0b8 786d 2239
000002a0: 601e c238 343f e3b8 a21e bfb7 c2e4 560a
000002b0: aba6 dc07 f88f cf07 4ced 7a87 58fa 9221
000002c0: f08f 95b5 77d5 97b9 1e42 0f9f c820 8885
000002d0: 3dfe dfb9 a36f 65b9 64c2 39ba ab4f f138
000002e0: e81f 0e08 3a4e 7a07 790a deb9 c6de e3b9
000002f0: 5a80 08b9 6bd8 fcb9 638e d9a7 d631 a207
00000300: 505e bc06 ffa2 89b7 1606 0608 8fed 2539
00000310: bf87 1335 6a0d 3ab9 9276 9739 60de 5906
00000320: 5e61 8397 fe89 888b b0d2 a89e 1542 eb15
00000330: 67a3 a637 f841 acb7 89c6 d937 20cf e606
00000340: 4f97 d887 908a fb27 9506 f6a2 8b2e 48ba
00000350: 08f6 2086 9dd8 c487 35a9 cc06 d6bb 2e08
00000360: 0125 cd87 4e9e db87 031f 242b cf36 2a39
00000370: 40ca d3b9 7919 9339 bd67 66b9 b6ba 8439
00000380: 54d9 a9b9 8169 3ab9 f218 8eb9 5e32 ee07
00000390: 6075 14b9 62a8 1ab9 44ee 2c39 fa16 f9b9
000003a0: a245 5507 e107 c087 04b9 c337 c0af 2187
000003b0: aa73 0cba 2068 03ba 1a16 291f 930a b437
000003c0: fab3 8087 de65 b739 0daa 8e8d e584 d6b9
000003d0: 0a6a 0988 c6c5 6d8e b801 d10e 2ea1 f8b9
000003e0: 8358 8fb9 1439 123a 3c22 f5b5 2eed 5339
000003f0: a65e 96b9 7dce 598f e5d0 94b8 7f35 3e07
-3.1243806e-05 0.0003193893 5.013201e-35 -4.7263e-34 -6.994563e-05 -0.00021612387 0.00026415358 -9.867071e-28
-0.00015947924 -0.0003996356 -0.00055558584 1.9307789e-34 -5.591899e-34 1.4793272e-17 3.5408562e-34 -2.471803e-05
-1.3308325e-28 -0.000111495625 -1.6025275e-05 6.764896e-05 8.0238424e-05 1.8724905e-21 2.8453022e-05 -2.9081748e-20
1.9746739e-18 -9.631069e-05 0.00023624973 -0.0003407727 2.4045813e-26 2.8708939e-05 1.1159735e-16 0.0003344798
-1.2637192e-06 2.6081017e-34 -1.3752246e-05 -0.00031914737 0.00027937387 -3.0050514e-35 -0.0002461514 0.00013725023
8.238532e-05 0.00021750525 -3.6197598e-05 2.707898e-30 -0.0003927603 -1.5167508e-05 -0.0003344932 -0.00013093984
6.592112e-05 -1.1666297e-34 -3.2084264e-21 0.0001497354 0.00010502753 -6.053318e-05 -0.0005291293 1.5261482e-34
-0.00036546338 -0.00033679674 -9.037471e-05 -0.00027235667 -9.8886e-35 -0.00043190428 2.2118924e-35 -5.7474128e-30
7.987317e-05 -9.130651e-05 2.1647075e-34 -4.2441866e-35 1.09253246e-35 -0.00016788575 -1.0099532e-18 -0.00011887691
0.00010397083 -0.00025233394 1.1314864e-34 -0.00022848055 4.31618e-34 -7.286244e-05 -9.387585e-35 0.00022242406
3.3925642e-34 -0.00034853283 -5.086347e-34 1.7701168e-05 -1.3870668e-34 -0.00017463631 6.4213666e-26 -4.837483e-34
3.7555e-31 1.20003e-34 1.9671168e-28 -2.3404291e-05 0.00012260371 -1.3905136e-34 -0.00028817813 1.5598006e-35
-4.4839384e-05 -0.00018094075 -1.7309205e-34 2.43695e-05 -0.00018351633 -0.00052322075 0.0002557836 6.313532e-05
-0.00027427686 -0.00014573384 9.341238e-05 -5.0764467e-19 0.0001110674 0.0002579934 -0.00036919137 -2.9879067e-34
5.299556e-34 -1.1810623e-28 0.00012315197 -0.00031264315 -0.00013448215 -0.00025431177 8.580751e-05 -7.725512e-05
1.1649809e-34 -1.973467e-34 -5.7033554e-05 -0.0002289261 -0.00015025523 6.0324417e-18 -5.1732623e-05 -0.0004148837
0.00025673816 -0.00038987063 2.7659038e-34 -6.951936e-05 -0.00013139802 -1.6336215e-34 -7.852984e-05 -0.00010435292
-3.4700486e-05 5.3509117e-05 3.3783246e-13 4.3413007e-22 0.00029343044 -3.958434e-34 6.112752e-35 -4.2594893e-06
0.00033621138 -2.5537958e-23 -0.00026787544 -0.00010218432 -2.9659174e-28 -1.8606921e-05 5.195629e-34 1.0350573e-16
-0.00012567607 8.6289816e-05 -0.000369185 -9.940696e-05 -0.00045367068 -3.5021618e-34 -0.00014585299 -0.00030981735
0.00016016296 -0.00013823563 9.477471e-06 -4.2456624e-34 1.834437e-09 4.768315e-34 -7.652563e-05 0.00015490304
9.256299e-05 -0.00010835976 -2.2783239e-05 1.034675e-32 3.319988e-34 3.1230516e-34 -1.8877645e-34 9.95961e-19
-1.1143256e-06 -0.00028960008 -3.033612e-20 -1.280142e-35 -0.00042723297 -0.0002188073 -0.00070861564 0.00011506615
4.2769076e-34 1.8830898e-34 -0.00042350942 -0.00043462793 -0.00013017785 -0.0004822643 -6.0383975e-15 2.4404342e-34
7.085632e-35 -1.6407574e-05 4.033131e-34 0.00015824124 5.4959304e-07 -0.0001774334 0.00028889306 4.097654e-35
-8.490256e-25 -5.259292e-32 -1.787483e-20 9.5020003e-26 1.9864832e-05 -2.0534717e-05 2.5960866e-05 8.6820727e-35
-3.2589e-34 6.9816725e-15 -6.6685403e-18 -0.000763633 -3.027341e-35 -2.9618116e-34 7.69849e-35 5.258202e-34
-3.086672e-34 -3.30445e-34 5.830754e-13 0.00016232881 -0.00040395744 0.00028057004 -0.00021973155 0.00025316112
-0.00032396114 -0.00017777646 -0.00027102936 3.5839863e-34 -0.00014158105 -0.00014749312 0.00016491959 -0.000475101
1.6044802e-34 -2.889358e-34 2.3331966e-05 -1.2163942e-34 -0.00053578115 -0.0005012769 3.5805424e-20 2.1462596e-05
-1.936508e-34 0.00034980377 -8.792364e-31 -0.00040916275 -4.1351586e-34 -2.930773e-30 5.1524133e-30 -0.00047422334
-0.00027341032 0.00055779633 -1.8263886e-06 0.00020210884 -0.00028680748 -1.0738694e-29 -7.0960996e-05 1.4309732e-34

model_1/dense_5/BiasAdd/ReadVariableOp/resource f4 [64]
00000000: 439c 153b f914 053b 17b1 183b 916a 013b
00000010: f882 333b a0af d83a 8979 c23a 994e 1b3b
00000020: ae45 423b 981e 6099 e609 153b 99f7 1a3b
00000030: 0fc0 2b3b 55c6 073b 9d89 023b 3887 f53a
00000040: ef85 e53a 00c2 e23a e472 443b aa2e 0c3b
00000050: d877 0d3b 37e9 293b adb2 033b 1632 173b
00000060: 265c 093b c9af dc3a d8c3 103b d100 0d3b
00000070: 2f05 073b 0d6a 083b 49c4 2b3b b054 2f3b
00000080: 7950 133b b4f7 013b 0140 0a29 5002 493b
00000090: d235 391f 34b3 273b 2bfa 0c3b 03f2 483b
000000a0: 9793 0b3b d108 233b 109d 503b 7f7a 2f3b
000000b0: 2f3e 103b d2c1 ed3a 57c2 443b 7954 093b
000000c0: 6b29 e33a 4710 313b 9983 053b eff7 1d3b
000000d0: 8313 153b 9091 393b 9258 9ba0 7202 0d3b
000000e0: 279d 0c3b 4143 3b3b faf2 083b 7ad4 403b
000000f0: 6be7 003b 8ed7 0c3b 8bee 1c3b ddf9 273b
0.0022828735 0.002030669 0.0023298913 0.0019747356 0.0027391296 0.0016531833 0.0014837246 0.002369797
0.0029643583 -1.1586707e-23 0.0022741496 0.0023646115 0.0026207005 0.002071758 0.001991845 0.0018732315
0.0017511229 0.0017300248 0.0029975707 0.0021390119 0.0021586325 0.002592636 0.0020095513 0.0023070625
0.0020959466 0.0016837056 0.0022089388 0.002151538 0.0020602455 0.0020815164 0.0026209524 0.0026753359
0.0022478385 0.001983148 3.069767e-14 0.0030671544 3.9219793e-20 0.002558899 0.0021511416 0.0030661828
0.0021297687 0.002487708 0.0031831898 0.0026775894 0.002200972 0.0018139428 0.0030023062 0.002095489
0.0017331069 0.0027017759 0.0020372628 0.0024104079 0.0022747226 0.0028315522 -2.6316632e-19 0.002151635
0.0021455975 0.0028574022 0.0020896778 0.002942352 0.0019669186 0.0021490785 0.0023945894 0.0025631108

model_1/dense_6/BiasAdd/ReadVariableOp/resource f4 [32]
00000000: 11dd ff3b 4127 033c b8ef e43b ed0f 0c3c
00000010: 07c4 013c 4b8e 0a3c 3e23 f83b 39a9 053c
00000020: c8c3 fc3b 679a 0a3c 6013 0d3c e32d f83b
00000030: e4fc d03b b319 0b3c c781 603b d860 7e3b
00000040: e23e 0a3c 5c0e 093c 1c80 d73b 4d86 fd3b
00000050: 5e8d ef3b 0445 023c 940b d63b ec30 e63b
00000060: 7371 fd3b 21c2 053c e4b8 033c e118 ce3b
00000070: e6e0 0a3c b8a1 fe3b 8ed7 003c ee7c ef3b
0.0078083356 0.008004964 0.0069865845 0.008548719 0.007920272 0.008456777 0.0075725606 0.008158022
0.0077137686 0.008459664 0.008610576 0.0075738295 0.006377803 0.008490014 0.003425704 0.0038815048
0.008437844 0.00836524 0.006576551 0.007736957 0.0073105535 0.007951025 0.006532142 0.007024875
0.0077344715 0.00816396 0.008039687 0.006289587 0.0084764715 0.007770743 0.007863892 0.007308594

model_1/dense_4/MatMul f4 [256, 256]
00000000: 542c d73a 4fa1 db3a 7963 d73a 1c8f da3a
00000010: 8bf5 ba3a 1093 de3a 8d32 c83a c7ac 41ba
00000020: 7c35 da3a 6c66 34ba 21da 7bba 6f74 5aba
00000030: bcef be3a ca32 bd3a 0896 d23a 117b ca3a
00000040: fe7d 8cba 53bb feb9 3ecd cb3a d88f d53a
00000050: fc63 57ba 9802 fc3a e9a3 ca3a 689d 79ba
00000060: 9114 36ba 92c3 e83a eff8 93ba bac4 01b9
00000070: d378 cf3a 35e8 2aba 354a 36ba df32 65ba
00000080: 5144 c53a ac78 ea3a 1f86 8e3a f810 3dba
00000090: dbb2 40ba 365c be3a d892 03ba 06ee c43a
000000a0: 5aaa c73a 1b1e 4dba a7fe 22ba b283 88ba
000000b0: ba2e 1cba b983 ad3a 4203 ed3a 4ccc 69ba
000000c0: 8dcd e53a 6455 c03a 512b a23a 8298 d43a
000000d0: 60e2 1aba 0f16 85ba e972 41ba ddc3 13ba
000000e0: c2fc 86ba 889a 2dba 807d 32ba 5c61 df3a
000000f0: 2aed 55ba d3ee edb9 d132 5eba 3021 96ba
00000100: 8f6d 5fba 173a 41ba 6561 bb3a 7f5a 69ba
00000110: 0dec b63a dfde 053b ffe6 fb3a 9657 3bba
00000120: 634a 8dba 81d9 c43a 4138 9e3a d5f0 42ba
00000130: 9370 e33a 96d2 b03a 0b69 70ba c563 42ba
00000140: 6456 d83a e3c2 cd3a 727c 86ba 6954 e23a
00000150: 8ba3 59ba b71b 013b 68f2 70ba c909 56ba
00000160: 9adc ee3a a16f 61ba 0d06 44ba edaa cf3a
00000170: dff0 d73a e6b7 2eba ba64 d33a 4747 a43a
00000180: ca38 bb3a 97e1 36ba d140 ec3a a176 8cba
00000190: 9c42 a43a 6646 e23a 3f80 d43a bacb 19ba
000001a0: c5f8 af3a 0e68 b53a 1e52 68ba 201f 89ba
000001b0: 88c1 d83a 7cc5 af3a 2900 51ba 9291 a53a
000001c0: baff 4eba eec0 6fba d332 063b a0c8 29ba
000001d0: 37fe 7fba 1dd5 4eba b02f ee3a 9558 e83a
000001e0: 6573 82ba 8a6a d23a a66d ce3a a066 76ba
000001f0: 4773 ce3a 6595 d93a f3ca dc3a 5396 86ba
00000200: 8d6d eb3a 97db d43a 3f9d c83a 8646 bf3a
00000210: c0e0 dbb9 f669 bc3a 7ba6 6cba 9fcf a8ba
00000220: 2a38 d93a 89f0 64ba 97be f23a d313 0d3b
00000230: bc34 84ba 507e 74ba 2601 d63a 740f e93a
00000240: 0189 6fba 549c e53a 0c52 81ba 52f1 36ba
00000250: eb13 71ba c275 d23a 927f f63a f5f7 b63a
00000260: 6a3f 77ba bacb 1bba cf5f da3a 7e2c d43a
00000270: 8ef5 64ba 0d31 74ba 709b 55ba 9c23 87ba
00000280: 1ea6 e43a c043 46ba 5387 ce3a eaff d63a
00000290: 1921 64ba d16d 84ba 9043 46ba bf64 b43a
000002a0: be23 84ba df53 81ba f1a1 d23a d212 df3a
000002b0: d8c7 cc3a e837 66ba 1719 f33a 8627 c83a
000002c0: 61c8 4dba 1095 b53a eab0 44ba 3be8 39ba
000002d0: 7602 eb3a 8a5c 51ba 145b 65ba 58d5 c33a
000002e0: 36c7 31ba 5fdb ff3a e15f 76ba 6af3 c7b9
000002f0: 1713 74ba 51d3 c63a 3b9e c73a 8fc6 85ba
00000300: 8659 40ba bdf0 c43a a151 20ba b661 ce3a
00000310: b585 48ba 26b7 b03a 7285 c13a fc83 df3a
00000320: 7727 f33a 6eaa 1dba 2712 0d3b 7a61 e83a
00000330: b19c db3a 657f e13a 39be c83a b09e e73a
00000340: 430f 49ba a485 5aba 2deb 47ba 8e35 b63a
00000350: 2034 f63a 89de d33a ac90 4cba adcb dd3a
00000360: f1e0 c83a c608 f1b9 6088 e23a 5d0b c53a
00000370: 4e7b de3a 7148 c23a 571b b03a 6310 61ba
00000380: 4103 29ba f978 b03a ecdc c33a 8dd8 ea3a
00000390: b11f e33a 15b3 31ba acf4 acba 70d3 32ba
000003a0: 5b06 0cba 4c75 ee3a 957d db3a b8bd 42ba
000003b0: 4203 aa3a 1845 ea3a 9853 d93a b2e8 a33a
000003c0: 599b e23a d9cd fe3a 8e74 49ba 59c5 d63a
000003d0: e9c1 85ba 74b9 b23a 58d0 62ba ff65 bf3a
000003e0: b582 ae3a 69ae d13a 8dc5 d03a 7f10 6cba
000003f0: 0a15 31ba c3fc e33a e90a be3a 0953 be3a
0.0016416409 0.0016756448 0.0016432843 0.001667473 0.0014263851 0.0016981084 0.0015273854 -0.00073881116
0.001664802 -0.0006881717 -0.0009607394 -0.000833339 0.0014567296 0.0014434692 0.0016066441 0.0015448054
-0.0010718701 -0.00048586223 0.0015548838 0.0016293479 -0.0008216498 0.0019226847 0.0015460226 -0.00095220516
-0.00069458137 0.001775848 -0.0011289398 -0.00012375685 0.0015828855 -0.0006519587 -0.0006953807 -0.0008743237
0.0015050267 0.0017888746 0.0010873711 -0.00072123064 -0.00073508703 0.0014523331 -0.0005019135 0.001502455
0.0015233264 -0.00078246155 -0.0006217756 -0.0010415225 -0.00059578905 0.0013238109 0.0018082636 -0.0008918687
0.0017532572 0.0014673886 0.0012372528 0.0016219767 -0.00059083663 -0.0010153669 -0.00073794887 -0.0005636791
-0.0010298716 -0.0006622453 -0.0006808862 0.0017042565 -0.00081606454 -0.000453821 -0.00084762 -0.0011453982
-0.00085231004 -0.0007371022 0.0014295994 -0.00089017296 0.0013955847 0.002042703 0.0019218622 -0.0007146535
-0.0010779615 0.0015018434 0.0012071208 -0.00074363995 0.0017352275 0.0013490494 -0.0009170926 -0.00074153795
0.0016505239 0.001569834 -0.0010260476 0.0017267588 -0.0008302263 0.0019700357 -0.0009191395 -0.000816491
0.0018223703 -0.0008599703 -0.0007477708 0.0015843787 0.0016474983 -0.0006664976 0.0016128041 0.0012533449
0.0014283892 -0.00069763645 0.0018024688 -0.0010716507 0.0012532058 0.0017263412 0.0016212537 -0.00058668444
0.001342558 0.0013840215 -0.0008862334 -0.0010461546 0.0016537169 0.0013410295 -0.0007972741 0.0012631884
-0.00078963826 -0.0009145875 0.002047707 -0.0006476734 -0.0009765359 -0.0007890033 0.0018172171 0.0017726595
-0.0009952603 0.001605348 0.001574923 -0.00093994476 0.0015750908 0.0016600309 0.0016845152 -0.0010268189
0.0017961726 0.0016239759 0.0015305652 0.0014593161 -0.00041938387 0.001437484 -0.0009027493 -0.0012879259
0.0016572524 -0.00087333523 0.0018519935 0.0021526709 -0.0010086517 -0.00093266834 0.0016327247 0.0017781095
-0.00091375416 0.0017517903 -0.0009866371 -0.00069787086 -0.00091963884 0.0016056823 0.001880633 0.0013959395
-0.00094317517 -0.00059431384 0.0016660633 0.0016187576 -0.00087341 -0.00093151705 -0.0008148467 -0.0010310295
0.0017444526 -0.0007563196 0.0015756882 0.0016403173 -0.00087024417 -0.0010103529 -0.0007563168 0.0013762935
-0.0010081453 -0.0009866914 0.0016069991 0.0017019159 0.0015623523 -0.00087821344 0.0018546906 0.0015270568
-0.0007849988 0.0013853628 -0.0007503169 -0.0007091795 0.001792981 -0.00079865067 -0.00087492284 0.0014940901
-0.0006781699 0.0019520334 -0.00093984423 -0.00038137595 -0.0009310706 0.0015169178 0.0015229651 -0.001020627
-0.0007337559 0.0015025359 -0.0006115679 0.0015745673 -0.00076493184 0.0013482317 0.0014764501 0.0017052884
0.001855119 -0.0006014471 0.0021525712 0.0017729246 0.0016755072 0.0017204104 0.001531548 0.0017671194
-0.00076698157 -0.0008335954 -0.00076262915 0.0013901459 0.0018783845 0.0016164343 -0.000780354 0.0016921662
0.0015325827 -0.0004597364 0.0017283075 0.0015033294 0.0016974004 0.0014822615 0.0013435882 -0.00085855107
-0.0006447323 0.0013463787 0.0014943159 0.001791732 0.001732817 -0.00067786995 -0.0013195476 -0.0006821668
-0.0005341523 0.0018192916 0.00167458 -0.0007428783 0.0012970942 0.0017873375 0.0016580699 0.0012505262
0.0017288729 0.001944001 -0.00076849095 0.0016385718 -0.0010204884 0.0013635592 -0.00086522615 0.0014602541
0.00133141 0.0015997413 0.0015928015 -0.00090051437 -0.0006755149 0.0017394054 0.0014499101 0.0014520596

model_1/dense_5/MatMul f4 [64, 256]
00000000: 6fb8 763b 4335 4cba c823 1787 34c4 db86
00000010: f1e5 343b 1f9e 2eba 0796 543b bbc0 9812
00000020: 58a4 343b fc79 993b a803 9f3b a05b 6a06
00000030: c520 9d87 7a07 af22 3563 ec87 8882 a43b
00000040: 0a98 0a10 2d50 98ba 9e54 6e3b 9974 4aba
00000050: 4475 813b 5679 cc1f 3c7d 2cba 4555 2fa0
00000060: 36c1 07a2 4da2 8e3b 25bf 67ba 71b3 8d3b
00000070: f81a e113 1cb1 53ba 6180 ba24 3221 3cba
00000080: 4bec 6eba 0abc 8a07 9302 363b 4724 913b
00000090: bebf 793b 8675 b304 4e89 583b da6e 0eba
000000a0: 137f 31ba 516a 50ba e2e5 45ba 596b 328e
000000b0: e071 783b bad9 ceba 4d22 613b 0727 7cba
000000c0: f251 223b 67f8 d406 9cb2 8d1e b877 84ba
000000d0: 86f3 82ba 48ae 403b 1a96 6d3b fa81 9507
000000e0: 44a5 2fba cfcb 7b3b 5960 553b ac66 88ba
000000f0: 705a 3006 43d8 863b 8010 1907 27ac 568f
00000100: 535e 5cba e4f5 8cba f4e9 2488 bdab e187
00000110: bdfa 8c86 944d 4e3b c81e c621 a7d5 5bba
00000120: 9dae 2dba 5fd5 59ba 78e1 0c88 e8bd 573b
00000130: 6c3a 0a88 93c6 173b 400b db04 369c 8fba
00000140: eed6 2c87 bbce 533b 14aa db07 b531 62ba
00000150: 7739 0d88 069c 82ba c157 5c95 0864 7506
00000160: 4df5 760d 083c 2f07 1ea2 2592 043a 40ba
00000170: 1aeb 02ba 756e 7b06 b511 71ba 66ee 5b07
00000180: 952c 3fba a6eb 60ba 1ca5 fd07 cb73 84ba
00000190: 9500 513b eae4 3d3b 88d4 93ba c6fe 9bba
000001a0: 527b 8fba 3fd1 693b 91ce 7c3b 7d03 c820
000001b0: cd12 45ba 50d3 65ba bf9b 5fba 3de5 9787
000001c0: e802 2907 04c7 000e 4840 88ba d884 493b
000001d0: c78e 913b 5512 32ba bc6d 64ba 8d87 3bba
000001e0: c06b b606 7720 c286 6eff 9bba 46ee 453b
000001f0: c5e2 87ba 769f e6a2 74f9 68ba 71ac afba
00000200: dfb4 a0ba 3994 3d3b c4d2 6e07 bee1 69ba
00000210: 2942 5d3b 98ba cd06 5307 4bba dcb1 823b
00000220: 6c77 04ba e363 753b d68f ae29 1023 071c
00000230: 8a47 b9ba 866c 4d07 b77e 6286 52bd 5dba
00000240: 1746 99ba 956b 429b c584 69ba 746d 653b
00000250: 13d1 e38f a170 7c3b 32d0 5c87 ad67 ba24
00000260: af1a 58ba 5e79 863b cc48 643b b159 69ba
00000270: 3d9b 813b 04c2 4306 deb6 b2b9 9bc1 00ba
00000280: de7d 56ba fbee 523b 7413 0eba 4aec 1188
00000290: f046 78b1 5820 6d07 9906 6e3b 0728 96ba
000002a0: dba0 96ba cd90 0eba d123 64ba cef0 090b
000002b0: b873 9207 8c05 3c06 0042 ab82 f6bc b6a2
000002c0: 9b27 523b d267 2fba 91b1 2620 b89d 7306
000002d0: 3bb9 4b3b dfca 0cba 4a8d 833b b22f 0fba
000002e0: b3b5 be07 e4ff 0d08 dc61 753b 6c24 783b
000002f0: 696b 753b 594a 32ba c31d 83a7 6c13 c107
00000300: 938c 0607 6372 adba 5201 af87 4827 75ba
00000310: 63b7 2db5 9e41 3a3b 104e b7ba cd60 b487
00000320: fe81 0998 042d 1d0c 0c3b b99e a626 f816
00000330: 3030 82ba 10f7 623b 90e1 35ba 20e9 5485
00000340: 7ca9 9106 91ac 8928 dcd7 1fa2 8817 5e3b
00000350: 2f29 9186 f094 4b87 7c49 3e86 aa36 ed87
00000360: 711b c506 442e 5707 f879 e32d 5e6f 98ba
00000370: f8f4 433b 2d57 55ba b02d 57ba 6372 62ba
00000380: 9b99 603b ca27 85ba aa3d 813b 3a2a 0e07
00000390: 6c41 1b3b 6046 0aba e2cd 78ba 3cfa 663b
000003a0: 6290 4f87 5408 0188 0f40 69ba a2ca a307
000003b0: e386 20ba 5e72 513b 1c91 0da0 9be7 8eba
000003c0: dcf4 1e08 9699 8e3b 9e7f a60b f83b 7c3b
000003d0: 35e6 4c07 60ac 220f a521 2a91 2c72 6f3b
000003e0: b402 473b 8494 f0ba 5c0c 31ba 1405 8cba
000003f0: 74a4 663b 322f cb90 823c 313b 1a94 6687
0.0037646552 -0.0007789919 -1.1370493e-34 -8.266694e-35 0.0027602876 -0.0006661135 0.0032438056 9.64006e-28
0.0027563777 0.004683731 0.004852731 4.4077824e-35 -2.3641995e-34 4.744176e-18 -3.5567642e-34 0.0050204434
2.7332828e-29 -0.0011620574 0.0036366354 -0.0007723063 0.0039507467 8.6598094e-20 -0.00065799407 -1.485129e-19
-1.8398197e-18 0.004352844 -0.00088404334 0.0043243696 5.682458e-27 -0.00080754026 8.0882124e-17 -0.00071765773
-0.000911419 2.0874452e-34 0.002777253 0.0044293734 0.0038108672 4.2190626e-36 0.0033040824 -0.0005433388
-0.00067709497 -0.00079504127 -0.0007549209 -2.199188e-30 0.0037909672 -0.001578144 0.003435272 -0.00096188526
0.0024768081 8.011053e-35 1.5002827e-20 -0.001010648 -0.0009990789 0.0029400755 0.0036252798 2.2495422e-34
-0.0006700347 0.003842104 0.0032558648 -0.0010406575 3.3168364e-35 0.004115136 1.151529e-34 -1.058417e-29
-0.00084063894 -0.0010754433 -4.9626965e-34 -3.3955176e-34 -5.3030574e-35 0.0031479346 1.342515e-18 -0.00083860237
-0.00066254457 -0.0008309688 -4.2394755e-34 0.003291959 -4.159654e-34 0.002315913 5.1496984e-36 -0.0010956589
-1.3003004e-34 0.0032319266 3.305142e-34 -0.0008628623 -4.2498194e-34 -0.0009964711 -4.4497872e-26 4.615287e-35
7.6099873e-31 1.3183178e-34 -5.2264645e-28 -0.0007332864 -0.00049941393 4.7289004e-35 -0.0009196059 1.6545788e-34
-0.0007292715 -0.0008580036 3.8164252e-34 -0.001010531 0.0031891216 0.0028975555 -0.0011278549 -0.001190149
-0.0010946786 0.00356777 0.0038575272 3.3883626e-19 -0.0007517755 -0.0008767145 -0.0008529983 -2.285469e-34
1.2715001e-34 1.587304e-30 -0.0010395134 0.0030749347 0.004442069 -0.0006792893 -0.00087138615 -0.00071536825
6.8619115e-35 -7.302239e-35 -0.0011901686 0.0030201836 -0.0010367265 -6.251046e-18 -0.0008887269 -0.0013402832
-0.0012260935 0.002892746 1.7967068e-34 -0.0008921883 0.0033761358 7.7386604e-35 -0.0007744927 0.0039884876
-0.00050531956 0.003744357 7.752104e-14 4.471307e-22 -0.00141357 1.5454378e-34 -4.259897e-35 -0.0008458692
-0.0011693862 -1.6082066e-22 -0.0008908029 0.0035007866 -2.246446e-29 0.003851928 -1.6612144e-34 8.0840275e-17
-0.0008243722 0.0041038236 0.003483343 -0.00089016097 0.0039552734 3.6817964e-35 -0.00034087052 -0.0004911662
-0.0008182208 0.00321859 -0.0005419769 -4.3912107e-34 -3.6129073e-09 1.7839403e-34 0.003631985 -0.0011456021
-0.001149203 -0.0005438447 -0.0008702847 2.6566402e-32 2.2035652e-34 3.5362945e-35 -2.5164074e-37 -4.953127e-18
0.0032067064 -0.00066911906 1.4119499e-19 4.5819094e-35 0.0031085748 -0.00053708063 0.0040146457 -0.0005462124
2.8694816e-34 4.273144e-34 0.0037442362 0.0037863506 0.0037448055 -0.000680124 -3.639207e-15 2.9050828e-34
1.0122351e-34 -0.0013232942 -2.633185e-34 -0.00093518617 -6.4714385e-07 0.0028420459 -0.0013985056 -2.7140284e-34
-1.7772464e-24 1.2108386e-31 -1.9612058e-20 4.0090952e-25 -0.0009932574 0.0034632124 -0.00069382135 -1.00110104e-35
5.479197e-35 1.5284894e-14 -2.1662793e-18 0.0033888537 -5.460345e-35 -1.5315791e-34 -3.5789016e-35 -3.5691925e-34
7.4143485e-35 1.6188399e-34 2.5861077e-11 -0.001162987 0.0029900651 -0.00081382954 -0.0008208407 -0.0008638261
0.0034271243 -0.0010158953 0.0039441185 1.0695302e-34 0.0023690118 -0.0005274769 -0.0009491128 0.0035244366
-1.561538e-34 -3.8829315e-34 -0.000889779 2.464461e-34 -0.00061236153 0.0031959037 -1.1991177e-19 -0.0010902764
4.7834226e-34 0.004351805 6.413289e-32 0.0038487893 1.5414906e-34 8.020415e-30 -1.3421003e-28 0.0036536558
0.0030366601 -0.0018354808 -0.0006753856 -0.0010682666 0.0035193237 -8.01421e-29 0.0027044122 -1.73468e-34

model_1/dense_6/MatMul f4 [32, 64]
00000000: cf8e e93b e8ac d23b 6053 e03b 8d57 65bb
00000010: 909f 62bb 2415 cb3b 1c87 e13b f93e dd3b
00000020: 2434 4abb bd1f 5d1a a2e9 ed3b be3b 75bb
00000030: 4c0e e53b 0340 58bb 7fe1 80bb 6288 e53b
00000040: c64d 73bb 349a d73b b152 7cbb 25ce 7abb
00000050: ffac 6cbb cd44 d53b 42cd 6ebb c14f e23b
00000060: a7fd be3b afb8 bd3b cbb6 eb3b bcc5 e93b
00000070: 786f c03b bb4a 55bb 5d85 71bb 7c0a 6fbb
00000080: 4bca f93b a962 f03b 55f4 a929 8d1a d83b
00000090: 4005 6c9d c2a7 fd3b 63db 113c 4762 46bb
000000a0: ec12 4abb 4b91 61bb 9e18 83bb 4356 85bb
000000b0: 8e0f 4fbb c453 d73b 1f3a 80bb 8fc9 d73b
000000c0: 647f cc3b 4d42 78bb ec6a 6dbb 15e4 c73b
000000d0: e26c 4fbb 5974 f73b d724 18a1 278d d73b
000000e0: dd7b f93b eb67 ee3b 3ca0 43bb b964 d53b
000000f0: 9b9c c93b 939d d13b f640 f03b f4e5 59bb
00000100: 71e9 ef3b fd7d cf3b da8c e13b 5da7 68bb
00000110: edfd 52bb e5af de3b c9a4 db3b 7073 de3b
00000120: 0a27 5dbb 34f6 7c19 d981 eb3b c28e 75bb
00000130: 42b3 f63b 0887 50bb 3033 87bb 2cfa e03b
00000140: 2c5a 74bb eb32 eb3b 4a42 7dbb adeb 77bb
00000150: de93 5fbb 7243 d93b 3476 66bb 2476 d63b
00000160: aaec b83b 756b c53b 826b f33b cbee 013c
00000170: 32aa c73b 9e4e 51bb a746 78bb d200 6cbb
00000180: 0e25 f93b e8c9 d83b 05b9 3829 d7e0 ed3b
00000190: 5133 719d fe31 fc3b 7741 fc3b 9a1b 4dbb
000001a0: 8d3f 3bbb ec1a 53bb 6a5c 81bb 48a4 7cbb
000001b0: c613 4cbb 067e da3b 93b2 85bb aaf8 da3b
000001c0: e510 c13b 79da 75bb 4b97 55bb 628b d43b
000001d0: f208 44bb f36a f33b 14fc 2da0 6f63 d23b
000001e0: 00eb ea3b 3f9a eb3b 8c32 54bb 7d8e e63b
000001f0: 5790 c73b 6b3e cb3b ddc0 f13b d66a 59bb
00000200: f5be e13b 8b82 be3b 11d0 e33b cc31 70bb
00000210: 5684 64bb 157f c43b d52a d03b cf78 df3b
00000220: 820b 65bb 28ec 8c19 1838 d93b 98fc 72bb
00000230: a472 f23b 4015 66bb c9d9 83bb 2b4e d13b
00000240: b4eb 70bb 9a24 e83b f16a 80bb 1650 77bb
00000250: 7ffd 62bb c413 e03b e4dc 5cbb 1484 d23b
00000260: bbf9 bb3b 944c c63b f683 e53b bde3 e43b
00000270: cbae d33b 6d47 5bbb 7fe9 79bb 1227 63bb
00000280: 94a9 ed3b 86ec dc3b d4d6 b829 8a3a e33b
00000290: 17ff 1b9e 0ab5 f13b 5650 f23b 42e3 32bb
000002a0: 2094 53bb 999b 5bbb 4f6a 78bb 5fcb 82bb
000002b0: 207c 57bb d970 de3b 5b9a 87bb 291d d53b
000002c0: 4454 cb3b 1315 80bb 7a4c 57bb 5ebd ce3b
000002d0: 04c0 54bb 2920 ef3b 603d c6a0 51b2 c83b
000002e0: e0d6 ea3b b63d e83b c70c 57bb f31d db3b
000002f0: 5412 c83b d31c d33b 48ff e13b 3201 6cbb
00000300: 5afb 5dbb 2f5d 50bb 54c3 42bb ae4a ba3b
00000310: bcba 963b 43f0 39bb 117d 4bbb 0267 60bb
00000320: 2bca 993b 9448 aa99 2b93 5bbb f603 b13b
00000330: 75f5 5bbb 24d0 af3b 4d41 c03b 78a4 61bb
00000340: c5bd c03b 51f4 4dbb b6f6 bb3b 9627 be3b
00000350: 4b66 af3b 8aad 4dbb f8e7 c13b 1ba6 36bb
00000360: f561 26bb d1b2 3fbb c4db 44bb 3eea 53bb
00000370: 8763 3cbb 3b94 aa3b 1615 b13b 4086 ae3b
00000380: adcf 51bb cfc4 47bb 50c9 60a9 3938 52bb
00000390: d6e5 ca9d 5d59 5ebb 74aa 4fbb f5d1 973b
000003a0: c086 9e3b 823e ae3b 67c3 dd3b b957 d33b
000003b0: fd61 9d3b 28a7 42bb ec61 bb3b d3bf 3bbb
000003c0: 4bb2 35bb 42a3 bf3b 2137 b33b ba56 41bb
000003d0: 7cf8 a13b 999f 6fbb 37a7 c59f 907f 20bb
000003e0: 3ede 5abb f400 65bb eb2b a33b a96a 4fbb
000003f0: d1f6 2abb 4096 46bb f783 4ebb 0d5f 993b
0.00712762 0.0064293034 0.0068458766 -0.0034994811 -0.003457997 0.0061975885 0.0068825614 0.0067518917
-0.0030853832 4.5727367e-23 0.007260517 -0.0037419642 0.0069902297 -0.0032997138 -0.003933131 0.0070047835
-0.0037125214 0.0065796617 -0.0038501436 -0.0038269844 -0.0036113856 0.006508446 -0.003643826 0.00690648
0.0058285776 0.0057898383 0.0071934215 0.0071341675 0.005872663 -0.0032545764 -0.0036853172 -0.0036474755
0.007622992 0.00733598 7.5474925e-14 0.006594962 -3.1237054e-21 0.0077409456 0.0089024035 -0.003027098
-0.0030834032 -0.0034418877 -0.0040007373 -0.004069121 -0.0031594965 0.006571265 -0.0039131786 0.006585307
0.006240772 -0.0037881315 -0.003622706 0.0061001875 -0.0031650593 0.0075517115 -5.154836e-19 0.006578106
0.0076136426 0.0072755716 -0.0029850146 0.006512251 0.006152702 0.006396958 0.0073319627 -0.0033248635
0.0073215296 0.0063321576 0.006883246 -0.0035500147 -0.0032194809 0.0067958706 0.0067029935 0.0067886636
-0.0033745193 1.3077815e-23 0.00718711 -0.0037469123 0.0075286934 -0.0031818766 -0.004125975 0.0068657603
-0.0037285192 0.0071777008 -0.0038644248 -0.0037829683 -0.0034115235 0.0066303546 -0.003516567 0.006544845
0.005643447 0.0060247728 0.0074285874 0.007930468 0.006093287 -0.0031937729 -0.003788391 -0.003601123
0.007603294 0.006615866 4.1016686e-14 0.007259469 -3.1922614e-21 0.007696389 0.0076982337 -0.003129697
-0.0028571815 -0.0032212092 -0.003947784 -0.0038550068 -0.0031139716 0.006667855 -0.0040801256 0.006682475
0.0058919066 -0.0037514253 -0.0032591398 0.0064863423 -0.0029912558 0.007428521 -1.4737076e-19 0.006420545
0.0071691275 0.0071900184 -0.003237876 0.007036029 0.0060902047 0.006202509 0.0073777274 -0.0033175251
0.006889219 0.005813902 0.0069522937 -0.0036650775 -0.0034868917 0.0059965947 0.006352762 0.0068198214
-0.0034949486 1.4571043e-23 0.0066290013 -0.0037076827 0.00739892 -0.003510788 -0.0040237647 0.006387492
-0.0036761584 0.0070844414 -0.0039189984 -0.0037736944 -0.0034635959 0.0068382937 -0.0033700997 0.0064244363
0.0057365573 0.0060516093 0.0070042564 0.0069851563 0.006460046 -0.003345932 -0.003813356 -0.003466074
0.0072528813 0.006742063 8.208508e-14 0.0069344686 -8.258383e-21 0.007376318 0.0073948307 -0.00272961
-0.0032284334 -0.0033509491 -0.0037905162 -0.003991529 -0.003288038 0.006788355 -0.0041382737 0.0065037203
0.0062051136 -0.0039087622 -0.003285198 0.0063091954 -0.0032463083 0.007297535 -3.358312e-19 0.0061247726
0.0071667284 0.0070874346 -0.0032814012 0.00668692 0.0061057005 0.006442645 0.006896887 -0.0036011455
-0.003387174 -0.0031793823 -0.0029718475 0.005685172 0.004599897 -0.0028371967 -0.0031049887 -0.0034241085
0.0046932898 -1.7606902e-23 -0.0033504467 0.0054020835 -0.0033563052 0.0053653885 0.0058671595 -0.0034430306
0.0058819973 -0.0031426142 0.0057361973 0.005803059 0.0053527704 -0.0031383955 0.0059175454 -0.0027870003
-0.0025387977 -0.002925087 -0.0030038217 -0.0032335664 -0.0028745846 0.0052056587 0.005404125 0.0053260624
-0.0032014654 -0.0030482297 -4.9912602e-14 -0.0032076968 -5.37066e-21 -0.0033927776 -0.0031687291 0.004633183
0.004837841 0.00531751 0.0067676785 0.0064496663 0.004802941 -0.0029701684 0.0057184603 -0.0028648272
-0.002772468 0.0058483193 0.0054692184 -0.0029501156 0.0049429517 -0.0036563633 -8.370938e-20 -0.0024490096
-0.0033396627 -0.0034943195 0.0049796007 -0.0031649268 -0.0026087055 -0.0030301958 -0.0031511763 0.0046805204

model_1/dense_7/MatMul f4 [1, 32]
00000000: d880 193f 9d04 133f a67e 2b3f 2b60 e8be
00000010: 12b6 19bf b110 833e 648b 28bf b225 0a3f
00000020: c2f1 1e3f a08a fabe c23c fd3e fbac cabe
00000030: 9933 6cbe d2d4 e23e 28e0 cf3d 87bd e3bd
00000040: 3bbd d33e 3f4f b63e 066f 3dbf 2275 00bf
00000050: 34cb 213f cb6c c0be e8a8 37bf 2b13 85be
00000060: b580 093f c1ee 063f 7fd3 013f ec69 55bf
00000070: 6cca ed3e 9cf4 063f 4ecc dabe d20b 2abf
0.59962225 0.57428914 0.66990125 -0.4538587 -0.6004344 0.25598672 -0.65837693 0.5396377
0.62087643 -0.48933887 0.49460417 -0.395851 -0.23066558 0.44302994 0.10150176 -0.11120134
0.4135531 0.35607335 -0.73997533 -0.5017873 0.6320069 -0.37583002 -0.71742105 -0.25991186
0.53712016 0.5270806 0.5071334 -0.8336475 0.46443498 0.52716994 -0.42733997 -0.66424286

model_1/separable_conv2d/separable_conv2d/depthwise f4 [3]
00000000: 0000 0000 0000 0000 0000 0000
0.0 0.0 0.0

model_1/separable_conv2d/separable_conv2d/depthwise1 f4 [1, 3, 3, 3]
00000000: 0224 c1be fa2b 72be a725 d13e 9bd2 37be
00000010: fec2 ddbd 9770 62be 14a8 743e 3d44 7fbe
00000020: 6da8 e33e f4a7 a33e 8cfa 343e 798c b2be
00000030: e275 e73d d398 1c3c 2aee 8e3d b6d6 b13d
00000040: 990c a1be 2520 113d b304 0cbe 910a 93be
00000050: 1096 71bc f33b b3be ba0e 573e 66dd 0fbe
00000060: 4854 6b3e 7c60 f63d a290 64be
-0.37722784 -0.23649588 0.4084904 -0.17951433 -0.108282074 -0.22113262 0.23892242 -0.24928375
0.44464436 0.31964076 0.17673701 -0.34872797 0.11301781 0.0095579205 0.0697902 0.08683531
-0.31454924 0.035431046 -0.13673668 -0.28719 -0.01474525 -0.35006675 0.21001711 -0.140493
0.2298137 0.12030122 -0.22320798

model_1/separable_conv2d/separable_conv2d f4 [16, 1, 1, 3]
00000000: 40b1 13c1 11f3 0f40 fbd2 7fc1 78e1 82c1
00000010: 804c 633f 2ca1 353f 735e b4c0 d998 4d40
00000020: 47d1 10c1 2317 ff3e fadb b8c0 ccd1 8240
00000030: 93cb 0940 e4de 9440 5d02 0e41 68ed fd3f
00000040: 4e37 d3c0 9ae7 ecbf e4bb e43f c569 bdc0
00000050: f58c 7140 f7c3 8a40 7c50 bdc0 af59 053f
00000060: ef03 afc0 2883 92c0 e366 ca40 68c4 e040
00000070: a0af c2c0 62a7 5840 64ee 3940 1a8e b340
00000080: 05a9 b540 42e3 803e c1fb 92c0 a961 5dc0
00000090: 3acb 943e 2c3e b7c0 fd7d b940 b256 df40
000000a0: 2ef4 d5bf f1d8 3f41 f127 aec0 2f3d d140
000000b0: 19e2 453f c754 a240 0be2 7940 c32d f73f
-9.230774 2.2492106 -15.989009 -16.360092 0.88788605 0.70949054 -5.6365294 3.212454
-9.051093 0.4982234 -5.7768526 4.08811 2.1530502 4.6522083 8.875577 1.9838076
-6.600501 -1.8508179 1.786984 -5.9191613 3.7742283 4.3364215 -5.9160748 0.5208997
-5.46923 -4.5785103 6.3250594 7.0239754 -6.0839386 3.3852162 2.9051752 5.6110964
5.6768823 0.25173384 -4.5932317 -3.4590857 0.290613 -5.7263393 5.7966294 6.979333
-1.6715143 11.990464 -5.4423757 6.5387187 0.7729812 5.072849 3.9044216 1.931084

model_1/separable_conv2d_1/separable_conv2d/depthwise f4 [16]
00000000: 0000 0000 0000 0000 0000 0000 0000 0000
00000010: 0000 0000 0000 0000 0000 0000 0000 0000
00000020: 0000 0000 0000 0000 0000 0000 0000 0000
00000030: 0000 0000 0000 0000 0000 0000 0000 0000
0.0 0.0 0.0 0.0 0.0 0.0 0.0 0.0
0.0 0.0 0.0 0.0 0.0 0.0 0.0 0.0

model_1/separable_conv2d_1/separable_conv2d/depthwise1 f4 [1, 3, 3, 16]
00000000: 83c6 ed3d 38d7 2c3e 817d 333d 865b 423d
00000010: de75 3fbd 380f f13d 303a ebbd ef47 28be
00000020: ddbf cbbd a7ae 1e3d 5fe5 5bbd f3d1 553d
00000030: dc45 c03d 5e26 a53c ca40 553e 37bf 133e
00000040: 9a86 b33d dfbb 03be 3d59 9d3d 6c89 253d
00000050: 1011 db3c 2096 0f3e c3fd e33d e998 51bd
00000060: 6812 423d 219e 873d f733 8a3c 9275 923d
00000070: 0203 2e3e 11f7 c2bd 38bc 50bc aa37 2a3e
00000080: 93ed 3dbe a4f9 7cbe 58cb 353d 42c1 fcbd
00000090: 5c80 77bc fb9e 1f3e 8e15 26be 9cfe 003e
000000a0: 20ea d23b bb4a 54be 35c4 91bd 7208 d4bd
000000b0: f936 e9bd aff8 54be 10a0 073e 5b69 ffbd
000000c0: 3bb0 8fbd 2ab8 a8bd 297f 5cbd 3ef9 0dbe
000000d0: 9ff5 013e 7d76 89bd 91d5 f3bd b444 c93d
000000e0: ccfa b73d 3bff f7bd bd10 8ebd 0283 a7bd
000000f0: 73ad dabc 0634 5bbe ffb5 14be 4b27 113e
00000100: 54e1 6d3e e901 f8bb a2c4 243d a34c d43d
00000110: 2ae3 14bd 7c52 d83d 9591 133e 72a0 00bd
00000120: db42 eabd 06b8 213e 57c0 29be 5b90 443e
00000130: 2ba8 003d c020 39bc 28e9 193e 9d73 e73b
00000140: c7ec f0bd d560 d5bd ab3a e8bd 5da6 e53d
00000150: 0592 803d e853 0abe e658 1d3e 3bec 0a3e
00000160: a8da 08be 9941 21be 6c0f 1fbe e69c 023e
00000170: d83f 853d 6352 dd3d 6a10 523e 6a5b 66bd
00000180: 946d 463d 4ca4 f4bd be1b a63a 2502 29be
00000190: 1a57 f43c a4ba 3bbe 5111 78bc e930 dd3d
000001a0: 2e25 25be 930d 6f3c 436b 3cbe aca9 053e
000001b0: bc46 5a3d 2f7a 5bbd 02b7 0f3d 39f4 323e
000001c0: a4f0 7b3d 95a3 133e f94e cabd e59b ddbd
000001d0: 8551 4d3e f12c 09be 50dc b7bd ca79 103e
000001e0: 023f 0ebe 0463 1e3e 4c59 54bc 1fc5 223e
000001f0: 432e c0bd 433e 3bbe 604d fe3d e255 89bd
00000200: 0678 18bd 1a57 19bd 2b0f 6fbe 1b9e 1bbe
00000210: e086 ed3d 4457 893c cfaa 013d 9802 c8bc
00000220: 588b 28be 8f07 efbd 06e1 ebbd ff53 b0bd
00000230: e012 92bd 9ad6 fabd 2991 be3d 3e2a 22be
0.11610129 0.16878974 0.04382086 0.047450565 -0.046743266 0.11770481 -0.11485708 -0.1643369
-0.099487044 0.03874078 -0.053685542 0.052202176 0.093883246 0.020159896 0.20825496 0.14428411
0.087659076 -0.12864636 0.076830365 0.04041426 0.026741534 0.14022112 0.111323856 -0.051171217
0.047380835 0.066219576 0.016870482 0.07151331 0.16993335 -0.095197804 -0.012740187 0.16622797
-0.18547659 -0.24704605 0.044383377 -0.123415485 -0.015106287 0.1558799 -0.1621916 0.12597126
0.0064366013 -0.20731632 -0.07117502 -0.10353173 -0.11387438 -0.2079799 0.13244653 -0.12471267
-0.07016035 -0.082382515 -0.053832207 -0.1386461 0.12691353 -0.06712053 -0.11905969 0.09827557
0.089833826 -0.12109228 -0.06936786 -0.08179285 -0.026694035 -0.21406564 -0.14522551 0.14175145
0.23230487 -0.007568587 0.040226586 0.1036618 -0.036349453 0.10562608 0.14411004 -0.031403013
-0.11438533 0.15792856 -0.16577278 0.19195692 0.031410377 -0.011299312 0.15030348 0.0070633427
-0.11763912 -0.1041886 -0.11339315 0.11213372 0.06277851 -0.1350857 0.15365943 0.13566677
-0.1336466 -0.1574768 -0.15533227 0.12755165 0.06506318 0.1080673 0.20514074 -0.056239523
0.048444346 -0.119454 0.0012673063 -0.16504724 0.02982669 -0.18332916 -0.015140847 0.108003445
-0.16127464 0.014590639 -0.18400292 0.13053006 0.053290114 -0.05358332 0.03508664 0.17475976
0.06150879 0.1441787 -0.09878344 -0.1082075 0.20050628 -0.1339605 -0.08977568 0.14108959
-0.13891223 0.15467459 -0.012960743 0.15895508 -0.09383824 -0.1828547 0.12417102 -0.06705834
-0.03722384 -0.037436582 -0.2334563 -0.15197031 0.11597991 0.016765244 0.031657036 -0.0244153
-0.16459405 -0.116713636 -0.11517529 -0.08609771 -0.07132506 -0.12247963 0.09305031 -0.15836427

model_1/separable_conv2d_1/separable_conv2d f4 [32, 1, 1, 16]
00000000: effe 3140 709e 653f 8697 6bc0 62d0 9e3f
00000010: 4954 c4bf 68d4 3cc0 836e 2440 fcc1 5ebe
00000020: 5738 d73e 4f36 42bd 9076 71c0 ea03 ab3f
00000030: bd44 a23f a883 1e40 f821 3cc0 5327 1dc0
00000040: 06ab a4bf aa91 c53f db9a 963f 750c 95bd
00000050: 169c ba3f 1b4e 2340 3d9f 07bf 1e3f 903f
00000060: b65f f8bf 5af7 0bc0 7ced 52be bad0 0bc0
00000070: 87a6 f8bf ca57 cbbf 3375 c83f acde e53e
00000080: 68c3 853e 8aa8 6940 f8fb 9a40 fcf5 19c0
00000090: 2414 19c0 bb56 6dbf 339f 9fbd 87fd 5340
000000a0: dfea 1540 1c3d 143f 76c1 71c0 a46c a3bf
000000b0: f020 abc0 3f8b 883f 9b83 f4bf 557f 9bc0
000000c0: 9c00 32bf f151 b7be db6c 243e 5a03 c43e
000000d0: 8696 363f 9320 5abe fa68 75be a816 0dbf
000000e0: 3e85 cd3e d857 ae3e 9bb1 50bf 7470 63bd
000000f0: 4933 0cbf 0154 8a3e 7434 0b3f f465 45bf
00000100: fba0 a6bf 4593 cc3e 96a3 6f40 4595 b73e
00000110: 2d84 2940 1f92 3240 0f89 e03f ebc6 19c0
00000120: eb4b ecbf fc42 8ebf 8650 c83f 2681 54bf
00000130: c9a9 c93f 15ca 19bf e9b9 b8be b1d0 3040
00000140: dd6c b5bf 2df8 bebf 384b 44be 4492 bdbf
00000150: e0aa b23f a57d 72bf c93a abbf bdcd fe3f
00000160: 4ac6 c93e ba29 ecbe a0c1 87be 2f55 ae3f
00000170: 890f 03be d96c e0bf a939 79bd 7d59 f73e
00000180: 1d51 5a3f 2704 683e 31dd 2fbf cf3d 883f
00000190: 6dba bebf db11 393f 40ef 973c ed12 76bf
000001a0: 7088 4a3f 4818 783f 5a24 3cbd 9673 79bf
000001b0: bcd1 413e d45f cdbe 3625 f73e 3d54 15bd
000001c0: 72c1 0dc0 811f bbbf 1ad6 04bf 6da0 a9bf
000001d0: 19ff 7e3e f60a 153f 7c5e 2740 2c82 cc3f
000001e0: 38bd 61bf 9961 00bc 130f 973f 9e62 b8bf
000001f0: b284 cf3f 1848 cb3f 06e9 34be 2d54 bd3f
00000200: b980 673f fde6 42be 1fb2 5f3e 7e8f 55bf
00000210: 6acb af3f 50b5 fe3e 6e48 4dbf 39b2 f93e
00000220: 30cb 923f ea7c 90bf 4475 1bbe dcba 63bf
00000230: c693 903f 0f97 853f 9633 7c3f d858 76bf
00000240: e5e7 573d ac26 8abf eebb d93f f852 77bf
00000250: 8f0a d2be ace1 1a40 05da 873e f002 8bbf
00000260: 6f56 97bf 0cac 89bf 3780 5c3e 5927 833e
00000270: 5ae8 febf d4fa 0240 60e6 25bf d862 7cbf
00000280: 4bf3 023f 948d 65bf f146 fb3e 4b41 ae3e
00000290: 7bc0 52bf be1c 813f 23c6 8f3f 41ff 283e
000002a0: f016 61bf 77f0 0dbf 76cc 27be f7b1 513f
000002b0: 4335 16bf be67 42bf 0a1e 22bf 729b c1be
000002c0: ef54 be3d e4dd 8dbf d060 c63c 32cc b6be
000002d0: f3de 033f 149c 89be 3f3c 473f 9027 36bf
000002e0: d01c 3dbf 2e8d 273e 1b7c 65bf c35a 52bf
000002f0: b249 283f cc48 fdbd 0b4d 933f 2486 94be
00000300: 3778 d43f 9106 9340 fb0f a9bf b8fb f9be
00000310: d687 483e fc5f aabf 1bbc 4ac0 d8e8 5fc0
00000320: f770 16c0 cff4 d6bf 7039 2f40 3908 dfbf
00000330: 9260 73c0 3e38 6540 a2e6 f63d 73af 0b3e
00000340: be1c 9f3f 26d7 1440 d6df 0040 f153 573f
00000350: 0596 20c0 5762 0240 7c6d 6cbe c22b 243c
00000360: 6718 65bf b756 d9bc 7357 1abf 5ba6 03c0
00000370: f610 0dc0 7175 d0bf a10a 1340 a179 22bf
00000380: 58e4 04c0 1257 80bf 139e 1fbf ba30 0dc0
00000390: 2509 1dbf 7ffc 9240 73f8 4ac0 19b4 7fc0
000003a0: 489e f8bf 9fa7 2140 cc20 67c0 a12a d7bf
000003b0: 57c0 8b40 49bc bc3f 1a7a 1cc0 f4d2 69c0
000003c0: 3ed8 afbf ae1c 9140 56c7 2140 376b 18c0
000003d0: 9323 34c0 0d75 10c0 7a04 94bf 6987 1240
000003e0: 96b3 5040 b563 49bf 07bc 4440 554e c0be
000003f0: b0aa 06c0 d859 0f3f a009 3740 b191 6b40
2.781185 0.8969488 -3.6811233 1.2407343 -1.5338222 -2.9504642 2.569245 -0.21753687
0.4203517 -0.047415074 -3.7728615 1.336057 1.2677227 2.4767857 -2.9395733 -2.4555252
-1.2864692 1.5435078 1.1766008 -0.072777666 1.4578884 2.5516422 -0.52977353 1.1269262
-1.9404209 -2.1869721 -0.20598406 -2.1846147 -1.942582 -1.5886166 1.5660766 0.44896448
0.26125646 3.6509118 4.843258 -2.4056387 -2.3918543 -0.92710465 -0.07794037 3.312349
2.3424604 0.57905746 -3.777433 -1.276753 -5.3477707 1.0667495 -1.9102663 -4.8592935
-0.6953218 -0.35804704 0.1605715 0.38283807 0.7132343 -0.21301489 -0.23965827 -0.55112696
0.40140718 0.34051394 -0.81521004 -0.055527166 -0.54765755 0.27017215 0.5437691 -0.77108693
-1.3017877 0.39956108 3.7443595 0.3585607 2.6486924 2.7901685 1.7541827 -2.402766
-1.8460668 -1.1114192 1.5649574 -0.83009565 1.5754939 -0.6007398 -0.36079338 2.7627375
-1.4173847 -1.4919487 -0.19169319 -1.4810262 1.3958397 -0.9472297 -1.3377315 1.9906536
0.39409095 -0.46125585 -0.26514912 1.3619746 -0.12798895 -1.7533218 -0.060846005 0.48310462
0.8528002 0.22657834 -0.68696886 1.0643862 -1.4900643 0.7229287 0.0185467 -0.9612263
0.7911444 0.9691205 -0.045933105 -0.97441995 0.18927664 -0.40112174 0.48270577 -0.03645729
-2.214932 -1.4618989 -0.51889193 -1.3252083 0.24902 0.5821985 2.6151419 1.5977225
-0.8817935 -0.007835769 1.1801475 -1.4405096 1.621237 1.5881376 -0.17667016 1.4791313
0.9043079 -0.19033428 0.21845292 -0.83422077 1.3733952 0.49747705 -0.80188644 0.48768786
1.1468258 -1.1288121 -0.15181452 -0.88957 1.1295097 1.0436724 0.98516214 -0.96229315
0.052711386 -1.0793052 1.7010477 -0.96610975 -0.4102368 2.420024 0.26533523 -1.0860271
-1.1823252 -1.075563 0.21533285 0.25615957 -1.9914658 2.0465593 -0.6480465 -0.98588324
0.51152486 -0.89669156 0.49077561 0.3403419 -0.8232495 1.0086896 1.1232342 0.16503622
-0.87925625 -0.55445045 -0.1638659 0.8191218 -0.5867502 -0.7593955 -0.63327086 -0.37813908
0.092935435 -1.1083341 0.024216086 -0.35702664 0.5151207 -0.2687689 0.77826303 -0.7115412
-0.7387209 0.1636245 -0.89642495 -0.8216974 0.6573745 -0.123674005 1.1507887 -0.2900859
1.6599187 4.5945516 -1.3208002 -0.4882486 0.19583067 -1.3310542 -3.167731 -3.4985867
-2.3506448 -1.679346 2.7378807 -1.7424384 -3.8027692 3.5815578 0.120557085 0.13641147
1.2430646 2.3256316 2.0136619 0.8411246 -2.5091565 2.0372522 -0.2308864 0.010020198
-0.8949036 -0.026530607 -0.60289687 -2.0570285 -2.2041602 -1.628584 2.2975237 -0.6346684
-2.076437 -1.0026572 -0.6235058 -2.206099 -0.6134208 4.5933223 -3.1714141 -3.9953673
-1.9423304 2.5258558 -3.6113768 -1.6809884 4.367229 1.474496 -2.4449525 -3.6535006
-1.3737867 4.534751 2.5277915 -2.3815439 -2.8146713 -2.2571442 -1.1563866 2.2895148
3.260961 -0.78667766 3.0739763 -0.37559763 -2.104168 0.55996466 2.8599625 3.6807673

model_1/separable_conv2d_2/separable_conv2d/depthwise f4 [32]
00000000: 0000 0000 0000 0000 0000 0000 0000 0000
00000010: 0000 0000 0000 0000 0000 0000 0000 0000
00000020: 0000 0000 0000 0000 0000 0000 0000 0000
00000030: 0000 0000 0000 0000 0000 0000 0000 0000
00000040: 0000 0000 0000 0000 0000 0000 0000 0000
00000050: 0000 0000 0000 0000 0000 0000 0000 0000
00000060: 0000 0000 0000 0000 0000 0000 0000 0000
00000070: 0000 0000 0000 0000 0000 0000 0000 0000
0.0 0.0 0.0 0.0 0.0 0.0 0.0 0.0
0.0 0.0 0.0 0.0 0.0 0.0 0.0 0.0
0.0 0.0 0.0 0.0 0.0 0.0 0.0 0.0
0.0 0.0 0.0 0.0 0.0 0.0 0.0 0.0

model_1/separable_conv2d_2/separable_conv2d/depthwise1 f4 [1, 3, 3, 32]
00000000: f21b 8f3d 55d7 eb3d 3a71 83bc 63b0 a4bc
00000010: af0a debd 27c1 92bd 8dd1 943d c97e 043d
00000020: 2fcb c53d fb40 263e 2139 c93d 1c49 88bb
00000030: b83d 1dbe 69a2 86bc f5d5 e4bd 0840 49bc
00000040: c154 a9bd 8b64 613c ebc7 9dbd 2406 c53d
00000050: 033f 233e cbca 0e3e 80da eb3c a606 34bc
00000060: f580 e7bd 94ca aebd 3e63 193e 740d d43d
00000070: fcab bfbd dd6d 313e 9169 113e 8cc8 6dbd
00000080: 04b4 0cbe 6db9 e8bd 3a25 b03d 5b13 abbd
00000090: 3b0e 3cbc 5849 a53d 3692 d0bd 2aa9 2e3d
000000a0: d355 ea3d 19f5 e8bd bdb1 c03d 354c 82bd
000000b0: 39a9 d9bc 835b e6bd 8404 dcbc c198 653d
000000c0: 0aa7 e3bd a46d 273c 0e91 f6bd 85d3 a13d
000000d0: a279 fd3d a86b a8bd 3b3f 8e3d d5ed 5b3d
000000e0: 18cc b03c 57f1 183e 8368 fabd 5de6 da3c
000000f0: 8f94 d13d 285a 0ebe 2e9d 063e 527b f6bc
00000100: d9da f03d 7ccb dc3d 9474 09be a6a4 6bbd
00000110: d1e4 333e a522 00bd ca01 90bd e107 813c
00000120: d6ec 36bb 9fec 07bd 78d1 f43d fdb0 1c3c
00000130: 2496 513c 83fb a53d 082a 003e aedc 68bd
00000140: 0474 873d 8455 f23d 12ae 07bd bbb4 bcbc
00000150: f85e 03be 36fc 42bc 6f2a a3bd 2285 e13d
00000160: 0ac1 60bd c572 423d e269 663c d4f3 da3b
00000170: e970 d5bc efa3 c0bd 09f7 5d3d d59b bf3c
00000180: 11da 863b 2c93 6bbb 8860 0e3d a25a db3c
00000190: 9d7f 19bd 650b a13d 4ab4 f4bc 1e5c 03be
000001a0: b5e7 f03c 9afd 263e 0979 12be c7cd d3bd
000001b0: 3438 083e 015d 2f3d 298a df3d f430 0f3e
000001c0: 129d 3ebd 0992 eebc e283 fe3d 1416 d83d
000001d0: d8b8 bb3b b0ca debd 5fe2 103c 5a70 03be
000001e0: 9c4c cbbd 6dfb dc3d 444c ffbd 5bd7 343c
000001f0: fb9d 05bd f5ba f73d c5f5 2bbd 09e0 99bd
00000200: a112 1a3e e4cc e73b 5a25 233e f7b0 9fbd
00000210: 49e8 d0bb 7635 6e3d 9760 84bd 7002 b6bd
00000220: 7854 f7bb 2066 3ebd 0132 a23d 1c8a d4bc
00000230: c2aa 85bb 83b8 3bbd a680 f83b 305d 073e
00000240: 59e0 de3d ef0e 763c f749 c53d f98c 46bd
00000250: 70be 523d b345 9a3d ebd3 4d3d 1548 a73d
00000260: a7bf fb3c 3446 8e38 4761 2d3d 7982 fdbd
00000270: 958a d7bc f5d6 acbc 8d2a 19be 3f34 d13d
00000280: 9cd4 983d ccf8 42bd 0fae a1bd c63f ff3c
00000290: 17e7 39bd 76fe c93d a571 f03d 548a b33d
000002a0: c7e9 9fbc e2cb 73bd b0ea d0bb 67a4 2c3e
000002b0: 90f8 4a3e 2ccc f4bc 7b94 db3c 767c 0ebe
000002c0: 6a1b 083e 365a b43c 64d1 31bd e287 1cbe
000002d0: 7165 a23d 6af9 1ebe f30b 79bd a612 61bd
000002e0: 203c 953d d7fc ca3c 3647 c0bd c81c 18be
000002f0: fdee fbbd 5c14 cc3c 3b0a 003e 5de0 0abe
00000300: f149 543b f3c8 c23d 5f7e cfbc f46a c23d
00000310: 51df 933c 43c3 d1bd 671b ad3c 5912 81bd
00000320: 1e5e 07b9 a354 5d3d 79fa a23c c999 8a3b
00000330: a483 42bd 8fcd 1a3e 3b50 da3d d4ad 3bbd
00000340: ed7a e73d 152d af3c 58a5 133e 55ea 2a3e
00000350: cf8c 7ebc afc6 4ebd 7a63 83bd 4d1c 0f3e
00000360: 851a f5bd a519 ce3d b704 d53d 4bd9 52bc
00000370: 21b5 ac3c 823b 15bd dbf5 cebd b036 c13d
00000380: f0c3 babd 6705 a4bc 1356 afbd 341f 9b3d
00000390: 93c6 52bd a379 ddbd 3ebc c03d 0022 08be
000003a0: 1033 d33d 8fda cabd 8a87 cf3c 0a1d 8abc
000003b0: 1c59 aebd 690c abbd 8797 71bc 0e5b adbd
000003c0: 3960 493d 3923 05be 711e 82bd 69e4 bfbd
000003d0: cca3 55bd 92d5 343d 8dfc 60bd 0c44 c5bd
000003e0: fcfb ba3d 7395 873c b593 ffbd 772f adbd
000003f0: 50d7 0d3e 93f3 fdbc 8292 b4bd 7aaa de3c
0.06987752 0.11515681 -0.016045202 -0.020103639 -0.108418815 -0.07165747 0.07266531 0.032347474
0.09657895 0.16235726 0.098253496 -0.004159106 -0.15355575 -0.016434865 -0.111736216 -0.012283333
-0.08268119 0.0137568815 -0.07704147 0.09620312 0.15942006 0.13944547 0.028790712 -0.010987913
-0.113038935 -0.085347325 0.14979264 0.103541285 -0.09358975 0.17327066 0.14200427 -0.058052585
-0.13740546 -0.11363492 0.086008504 -0.08353301 -0.011478002 0.0807063 -0.101841375 0.042641796
0.11442151 -0.11374874 0.09408901 -0.063621916 -0.02656995 -0.11247923 -0.026857622 0.05605388
-0.111158445 0.010219011 -0.12039386 0.07901672 0.12376715 -0.08223659 0.06945654 0.05369361
0.021581694 0.14935814 -0.12226965 0.026721174 0.102334134 -0.1390158 0.13145897 -0.0300881
0.11760492 0.10780999 -0.13423377 -0.057530068 0.17567755 -0.03128304 -0.07031591 0.015750827
-0.0027912161 -0.033184644 0.119540155 0.009563682 0.012792144 0.08104613 0.12516034 -0.05685108
0.06613925 0.11832717 -0.03312499 -0.023035398 -0.12829196 -0.011900952 -0.07967078 0.11011721
-0.054871596 0.047472734 0.01406333 0.0066818986 -0.026054816 -0.09406268 0.05419067 0.023389736
0.004115351 -0.0035945876 0.034760028 0.026776616 -0.037475217 0.078635015 -0.029871125 -0.12828109
0.029407362 0.16307679 -0.14303984 -0.10341983 0.1330269 0.042813305 0.10915024 0.13983518
-0.046536513 -0.02912237 0.124274984 0.10551086 0.005728822 -0.10878503 0.008843034 -0.12835827
-0.099267215 0.10790143 -0.124657184 0.011037673 -0.032621365 0.12096206 -0.04198243 -0.075134344
0.15046169 0.0070739854 0.15932217 -0.07797425 -0.006375347 0.058156453 -0.064637356 -0.08887184
-0.0075479113 -0.046484113 0.07919694 -0.025944762 -0.004079194 -0.04583026 0.0075836955 0.13219142
0.10882635 0.015018209 0.09633248 -0.048474286 0.051451147 0.07532825 0.05025093 0.081680454
0.030731035 6.784164e-05 0.0423291 -0.12378401 -0.026311198 -0.021098593 -0.14957638 0.10215043
0.07462427 -0.047600552 -0.07894527 0.03115834 -0.0453864 0.09862988 0.11740426 0.08766618
-0.019520653 -0.05952061 -0.006375633 0.1685959 0.19821382 -0.029882513 0.0268042 -0.13914666
0.13291708 0.022015672 -0.04341258 -0.1528621 0.07929505 -0.15524831 -0.06080241 -0.054949425
0.072868586 0.024778767 -0.093885824 -0.14854729 -0.12301443 0.024912052 0.12503903 -0.1356215
0.0032392705 0.09510984 -0.025328813 0.09493056 0.018050821 -0.10242321 0.02113123 -0.06302328
-0.00012909665 0.054035794 0.019894825 0.0042297584 -0.047488824 0.15117477 0.10659834 -0.045820072
0.11302743 0.021383801 0.14418542 0.16690953 -0.015536501 -0.05048245 -0.06415458 0.1397564
-0.11967949 0.10063485 0.1040129 -0.0128691895 0.021082463 -0.036433704 -0.10105487 0.09434259
-0.09119403 -0.020022107 -0.08561339 0.07574311 -0.051458906 -0.10814216 0.09410904 -0.1329422
0.10312474 -0.09904968 0.025333185 -0.01685955 -0.0851309 -0.083519764 -0.0147456 -0.08464633
0.04916403 -0.13001718 -0.063534625 -0.09369738 -0.052158162 0.04414899 -0.05492835 -0.096321195
0.091300935 0.016550755 -0.12479345 -0.08456319 0.13851666 -0.030999934 -0.08817007 0.027180899
