app/src/main/assets/model_lite_age_nonq.tflite (tflite, 807584 bytes, 31 tensors)

model/dense/BiasAdd/ReadVariableOp/resource f4 [256]
2.1184867e-34 1.7647946e-05 -0.00016951254 -0.00027382266 -0.0001708384 -0.00057568407 -0.00022424624 2.0020285e-34
0.0001565673 9.7371634e-33 -1.806916e-05 1.8283517e-05 -1.4692598e-05 -0.00016374652 1.5364218e-05 -0.00037409354
-4.826493e-34 -0.00030510942 9.725459e-18 -5.8354616e-35 -4.1323667e-05 -9.576494e-22 -0.0003819596 -0.00016011918
4.8297963e-34 -9.496408e-35 -8.82099e-32 -0.0002585077 -3.6052233e-34 -3.3695353e-34 1.0952251e-05 -0.00059498695
-1.6393325e-07 -3.4691134e-35 -0.0003804867 0.00016878381 -0.00024544678 -0.0003393887 -7.73484e-05 -0.00019323295
2.0277256e-23 -7.388535e-25 -6.527419e-05 -2.9836526e-34 0.000106829364 -8.11586e-05 -1.1514881e-23 -1.8298146e-05
1.0744663e-05 -2.439723e-34 -8.3882267e-35 -2.1769923e-05 -0.0002776701 1.8952642e-05 -5.44781e-35 -1.2731935e-34
-1.0939881e-05 -3.9708448e-05 -0.0004480175 1.638343e-05 0.00016574195 1.189288e-34 -0.00011438508 -0.00020441857
3.2260873e-34 3.5872315e-34 -0.00039485338 -5.994473e-05 -1.9386088e-15 -1.7437245e-26 -2.5536201e-05 5.2170983e-31
-4.195419e-06 -0.00028295862 -1.278438e-34 -0.0002170397 -0.00021537332 1.2220179e-32 -0.00017439516 2.3589336e-34
-0.00014947486 -0.00020063939 1.241254e-34 3.3419587e-30 -1.2300816e-27 -0.00017136113 -0.00042107236 2.210982e-34
-7.137638e-30 -5.484882e-27 3.7606335e-11 7.573786e-05 -2.331561e-32 0.00041636804 0.00022594142 4.5978467e-28
-4.8269772e-05 -0.00019276464 -0.0002436697 4.2783612e-30 -3.5427585e-24 -0.00029998942 -8.923534e-05 -1.5114102e-35
-3.5686775e-05 -0.0001578633 -0.00031491753 -0.00041266554 -4.9331174e-28 2.171965e-05 -0.00040040648 -2.5571686e-35
-7.0719815e-23 -3.0318118e-34 -1.01756944e-35 -0.00026768402 1.7750148e-34 -0.00014278851 -3.9720006e-33 0.00011125107
-3.999176e-34 -5.83706e-05 -4.233361e-34 4.0290582e-21 2.9415773e-34 0.00018099425 -0.00010693772 7.4290766e-26
5.5535943e-20 -0.0003956202 -0.00015765257 0.00018757743 0.00040450454 -9.7802054e-05 -5.0505318e-05 -0.00029060178
4.82326e-34 7.414302e-35 4.7569024e-34 -0.00044656976 -0.0003935656 -0.00010275931 -0.00015104904 -7.735032e-18
-2.5332374e-05 -5.321082e-05 -2.8770732e-34 3.3888373e-34 7.1620614e-18 4.6616873e-34 -9.748143e-35 -2.8893564e-34
-5.7921134e-06 3.231152e-34 4.550357e-34 -0.00043814277 -0.00019322497 1.0433714e-34 5.6131876e-35 -0.00021110299
0.0002853669 1.4329402e-25 -0.0006852351 -0.00041967566 -2.3765326e-05 -6.906608e-35 7.127106e-05 -0.00036516925
-0.00015744918 -3.998791e-05 -4.1461853e-34 -0.00037426036 -0.00019461273 -5.272085e-34 0.00017884735 0.00017255399
4.2108833e-30 -0.0001893255 -0.00013426779 -7.583376e-35 6.864083e-05 5.7311457e-35 -0.00076636317 1.3320037e-05
-5.5495244e-20 -0.0001274827 2.2915105e-34 3.5920228e-05 -5.01053e-34 -0.00012850144 0.000103696846 -0.0003426733
0.0002496905 -2.9231345e-24 0.00028903867 -1.5484344e-34 8.146563e-05 -0.00028680416 0.00011659329 -0.0004744731
7.223053e-05 0.00036403976 3.385677e-05 -0.00031748196 -0.00010053608 4.568733e-22 -2.4401545e-34 -6.6129724e-13
4.2629774e-05 -0.00025735833 4.4763758e-05 -0.00013143715 1.4186007e-34 -4.0915526e-35 -0.0003158546 -0.00021321692
-0.00022087358 -0.00037329533 -0.00020001162 7.4752844e-23 -1.387925e-17 -0.00026780576 -1.548549e-25 4.777692e-34
-0.00050504715 -3.411389e-05 -0.00058455986 1.2191621e-36 2.8878946e-34 5.238313e-06 0.00022155701 -8.220425e-05
8.0485326e-05 0.00011201264 0.00018360291 -8.186216e-05 -3.91197e-34 6.507071e-06 -9.527515e-05 9.508341e-05
-9.984204e-35 -0.0002883326 4.3225024e-05 -3.2240465e-34 -0.00045800486 4.7885567e-34 -8.356687e-05 4.9570983e-05
6.169068e-35 -0.0002337751 -0.00019487782 -0.00011097342 2.2245409e-34 -9.404453e-05 -8.130396e-05 -1.3209425e-34
00000000: 2fcc 8c07 ad0a 9437 2dbf 31b9 db8f 8fb9
00000010: 1523 33b9 81e9 16ba a423 6bb9 c00e 8507
00000020: 372c 2439 a43b 4a0a 3a93 97b7 8e5f 9937
00000030: 3a80 76b7 5fb3 2bb9 68e2 8037 fc21 c4b9
00000040: 4363 2088 18f7 9fb9 2e67 3323 1822 9b86
00000050: f352 2db8 44b7 909c c041 c8b9 aae5 27b9
00000060: 5d7f 2008 3475 fc86 8901 e58b 5188 87b9
00000070: b29b ef87 acf1 df87 8fbf 3737 e6f8 1bba
00000080: a105 30b4 2073 3886 0f7c c7b9 8ffb 3039
00000090: 4faf 80b9 fbef b1b9 1b36 a2b8 939e 4ab9
000000a0: 0e1c c419 01aa 6497 d0e3 88b8 384c c687
000000b0: 9409 e038 b133 aab8 eeba 5e99 f87e 99b7
000000c0: fa43 3437 bc25 a287 50ff de86 8e9e b6b7
000000d0: 4094 91b9 7dfc 9e37 e0d3 9086 883c 2987
000000e0: 6e8a 37b7 9f8c 26b8 e4e3 eab9 266f 8937
000000f0: 04cb 2d39 6015 1e07 06e2 efb8 3159 56b9
00000100: 0869 d607 9569 ee07 5304 cfb9 2a6d 7bb8
00000110: 05b1 0ba7 abb0 ac94 9336 d6b7 f54d 290d
00000120: 60c6 8cb6 105a 94b9 feee 2987 2795 63b9
00000130: d6d5 61b9 9ecd 7d0a d8dd 36b9 2dc7 9c07
00000140: 5abc 1cb9 ba62 52b9 affd 2407 e290 870e
00000150: 0aea c292 67af 33b9 60c3 dcb9 e9f1 9207
00000160: bcc4 108f 5047 d993 f864 252e 74d5 9e38
00000170: 861f f28a f94b da39 b0ea 6c39 2ab6 1112
00000180: 4675 4ab8 dd20 4ab9 9681 7fb9 0b8d ad0e
00000190: c80d 8998 e647 9db9 dc23 bbb8 80b8 a085
000001a0: 62ae 15b8 1b88 25b9 841b a5b9 085b d8b9
000001b0: 3456 1c92 9832 b637 a6ed d1b9 60f6 0786
000001c0: 72fd aa9a 9b7f c987 c069 5885 f157 8cb9
000001d0: a0f0 6b07 80b9 15b9 8efd a489 774f e938
000001e0: 3ae5 0488 f4d2 74b8 74ad 0c88 a936 981d
000001f0: 5880 c307 46c9 3d39 c043 e0b8 5eef b715
00000200: 6b21 831f 3f6b cfb9 8a4f 25b9 6fb0 4439
00000210: ae13 d439 141b cdb8 acd5 53b8 e95b 98b9
00000220: c247 2008 201b c506 4013 1e08 9421 eab9
00000230: 7b57 ceb9 7c80 d7b8 eb62 1eb9 a8af 0ea3
00000240: dc80 d4b7 af2e 5fb8 dd36 bf87 143a e107
00000250: e11d 0423 40e9 1a08 3693 0187 da07 c087
00000260: e059 c2b6 34bf d607 2836 1708 87b6 e5b9
00000270: 6f9c 4ab9 17b0 0a07 6039 9506 875b 5db9
00000280: 4c9d 9539 b063 3116 59a1 33ba ea07 dcb9
00000290: a65b c7b7 f09b b786 5c77 9538 3074 bfb9
000002a0: f118 25b9 b1b8 27b8 d8c7 0988 6038 c4b9
000002b0: f510 4cb9 f031 2f88 f888 3b39 9cef 3439
000002c0: 50d0 aa0e ad85 46b9 3cca 0cb9 c899 c986
000002d0: 44f3 8f38 285c 9806 c3e5 48ba 2079 5f37
000002e0: d108 839f e0ac 05b9 084c 9807 0da9 1638
000002f0: e080 2688 58be 06b9 d277 d938 d5a8 b3b9
00000300: e4e8 8239 a52a 6298 1d8a 9739 7ed2 4d87
00000310: 87d8 aa38 345e 96b9 8c83 f438 b4c2 f8b9
00000320: 787a 9738 97dc be39 6e01 0e38 b573 a6b9
00000330: e6d6 d2b8 dc14 0a1c 142d a287 7d23 3aab
00000340: 5fcd 3238 0dee 86b9 b8c0 3b38 64d2 09b9
00000350: 7b90 3c07 548b 5986 4999 a5b9 fb92 5fb9
00000360: 4d9a 67b9 dab6 c3b9 36ba 51b9 c5bd b41a
00000370: 7403 80a3 4868 8cb9 7ab3 3f96 1cc4 1e08
00000380: 2465 04ba 8315 0fb8 263d 19ba 006e cf03
00000390: fbee bf07 c4c4 af36 c251 6839 1265 acb8
000003a0: 3bca a838 54e8 ea38 8885 4039 6aad abb8
000003b0: 5cff 0188 5057 da36 75ce c7b8 8467 c738
000003c0: 7cb6 0487 592b 97b9 844c 3538 4f46 d687
000003d0: 5f20 f0b9 8920 1f08 9f40 afb8 70ea 4f38
000003e0: 8000 a406 8721 75b9 1e58 4cb9 67ba e8b8
000003f0: 9ad8 9307 c639 c5b8 bb81 aab8 5895 2f87

model/dense_1/BiasAdd/ReadVariableOp/resource f4 [64]
0.0025252479 0.0022840528 0.0019459807 0.002391374 0.0016322914 0.0018044526 0.0021434987 0.0026439412
0.0035147138 0.0029045858 0.0017552949 0.0016182913 0.002489642 0.002454327 0.0025455398 0.0028772613
0.001475114 0.001738332 0.0023232338 0.0017799163 0.002128609 0.002322057 0.002090727 0.001874291
0.00258366 0.0022694417 0.0018082666 0.0028772408 0.0020561884 0.0015156012 0.0018934611 0.0028894441
-4.097611e-21 0.0016664498 0.0025885548 0.0025486015 0.0012620145 0.0018188126 0.0019968743 0.0026518381
0.0021985571 0.0018680204 0.0018994564 0.0018882097 0.0016788158 0.0029208453 0.0013529735 0.001752789
0.0020443744 0.0027731378 0.0021442939 0.002456753 0.0020359214 0.001558629 -9.438924e-06 -1.2885987e-17
0.0025231696 0.0023278755 0.00187419 0.0018453608 0.0025579648 0.0018855907 0.0019281172 0.0023486987
00000000: a17e 253b 0cb0 153b 4710 ff3a 99b8 1c3b
00000010: 9cf2 d53a 6283 ec3a f179 0c3b f945 2d3b
00000020: 1d57 663b dd5a 3e3b ec11 e63a d81c d43a
00000030: 4329 233b c6d8 203b 12d3 263b 6f90 3c3b
00000040: 9d58 c13a bed8 e33a 6541 183b 154c e93a
00000050: 2280 0b3b a72d 183b 9404 093b c5aa f53a
00000060: 9f52 293b eaba 143b 5c03 ed3a 1790 3c3b
00000070: 1ec1 063b 23a7 c63a 032e f83a d45c 3d3b
00000080: a9cd 9a9d c76c da3a bea4 293b 7006 273b
00000090: 2e6a a53a 3965 ee3a fedd 023b 76ca 2d3b
000000a0: ab15 103b 5dd8 f43a 2ef7 f83a ce7d f73a
000000b0: b60b dc3a a76b 3f3b 4256 b13a d7bd e53a
000000c0: e9fa 053b 88bd 353b 4887 0c3b 7a01 213b
000000d0: 186d 053b e94a cc3a df5b 1eb7 5ab4 6da3
000000e0: c35b 253b 458f 183b 62a7 f53a 09e0 f13a
000000f0: 87a3 273b ed25 f73a e1b8 fc3a a0ec 193b

model/dense_2/BiasAdd/ReadVariableOp/resource f4 [32]
0.007846988 0.006044026 0.0065089306 0.007920563 0.007841753 0.0043379054 0.0069068563 0.007125646
0.0071277474 0.006465707 0.005637006 0.0073562884 0.0068523698 0.008086483 0.007598708 0.0060022864
0.0070379986 0.0066178604 0.00787076 0.0071976916 0.006589733 0.00752181 0.006091741 0.0076021045
0.0073935566 0.0010219614 0.007196369 0.006950632 0.008106927 0.0062273396 0.007858481 0.007371898
00000000: a790 003c f70c c63b de48 d53b 40c5 013c
00000010: b27a 003c fd24 8e3b e952 e23b 407e e93b
00000020: e18f e93b 48de d33b a2b6 b83b 050d f13b
00000030: d889 e03b 2b7d 043c 95fe f83b d4ae c43b
00000040: 039f e63b a3da d83b 5cf4 003c 9dda eb3b
00000050: b0ee d73b 8479 f63b 3a9d c73b 131b f93b
00000060: a645 f23b 56f3 853a 85cf eb3b 21c2 e33b
00000070: ebd2 043c b60e cc3b dcc0 003c f68f f13b

model/dense/MatMul f4 [256, 256]
-2.5848407e-34 -4.375531e-34 -2.4956291e-34 6.055876e-35 -1.7111382e-34 -1.690544e-34 -3.075451e-34 2.8986715e-34
-3.5432476e-35 -1.718468e-34 3.5939991e-34 2.8498807e-34 -4.20492e-34 -4.57722e-34 -2.5143257e-34 -5.278163e-34
-5.721533e-34 -3.3384017e-34 -5.1806125e-34 -4.2006302e-35 -4.287068e-34 -1.176773e-34 -5.0500073e-34 -3.7799515e-34
1.1501565e-34 2.0915925e-34 -1.2328263e-34 -5.3445136e-35 -5.3178694e-34 -5.3802124e-35 -3.121394e-34 1.142702e-34
-4.8025685e-34 -5.6757386e-34 -2.7295222e-34 -2.7910212e-34 -2.1184465e-34 -1.6041067e-34 7.114194e-35 4.6851807e-35
4.5295654e-34 -4.3200685e-34 -1.5940988e-34 -2.3997051e-34 1.408396e-35 -1.8132423e-34 -3.319777e-34 -5.030307e-34
-2.3015286e-34 -3.754698e-34 -4.113542e-34 -1.4823566e-34 9.209672e-35 -3.056818e-35 -3.3550788e-34 -4.395537e-34
-3.5079686e-34 1.2001916e-34 4.9999776e-34 7.363631e-35 5.3999295e-35 -4.868014e-34 8.217858e-35 2.6401865e-34
-2.9179099e-34 2.8391908e-35 -4.6920096e-34 -1.9843708e-34 -5.742207e-35 -2.9442742e-34 -1.8789889e-34 2.955899e-34
-4.5564374e-34 -4.8028927e-34 -5.0441707e-34 6.8976195e-35 -5.420031e-34 -4.8234285e-34 3.4640177e-34 3.4081193e-34
-4.5329216e-34 -5.343343e-34 -2.3254442e-34 -1.7357097e-34 -2.8533927e-34 4.573512e-35 2.2006e-35 -3.7271503e-34
-4.6854893e-34 1.0780997e-34 -1.2338736e-35 -1.8376184e-34 -3.2032258e-34 1.6389868e-34 -1.9208362e-34 -3.3680326e-34
1.7232306e-34 -2.2471233e-35 -3.5105893e-34 -3.3233843e-34 -2.7086159e-34 1.4202735e-34 -4.830052e-35 -3.195772e-34
-1.5810526e-34 -5.028765e-34 -1.5970032e-35 -7.129333e-35 7.576628e-35 -3.5689735e-34 -3.3447948e-35 -2.8496929e-34
4.936971e-35 -1.4179886e-34 -2.433985e-35 -3.807547e-34 2.8617488e-34 -2.629799e-34 -4.7742556e-34 -2.8740502e-34
8.727294e-36 -3.0281166e-34 -6.4809504e-35 -1.7342837e-34 -3.8615628e-34 -8.648941e-35 -3.8274583e-34 -3.108343e-34
1.1202027e-34 -2.8282208e-34 -3.1865023e-34 1.3269381e-34 -4.2210473e-34 -4.318646e-34 1.703569e-34 -1.9643085e-34
-2.0201892e-35 -5.1380243e-34 -7.299229e-35 3.1904825e-35 -4.9284456e-34 -3.8600686e-34 -5.847878e-35 2.348184e-34
5.6374115e-35 -4.4097495e-34 -1.2233595e-34 -4.694564e-35 -2.9666973e-34 -1.6339093e-34 2.3163415e-35 2.0956e-36
-5.040591e-35 -2.3292372e-34 -3.1723472e-34 -1.683783e-34 -5.6860903e-34 -2.6481548e-34 -1.9760765e-34 -2.67956e-35
-4.5133225e-34 -8.587124e-35 1.4431564e-35 4.0861837e-35 -4.6683707e-34 -1.830379e-34 -5.0733225e-34 -3.0956185e-34
-2.6638066e-34 -3.7793016e-34 -3.7078696e-35 1.8125719e-34 -4.038213e-34 -2.9337898e-34 -2.4256037e-34 -2.5708002e-34
1.5792101e-34 -4.646721e-34 -4.9547514e-34 -2.910833e-34 -9.54793e-36 1.2876177e-34 -7.5334643e-35 -2.613482e-35
-2.2975131e-34 -4.6443653e-34 1.2553476e-34 -2.688041e-34 -2.2551979e-34 -4.3628193e-34 -1.4870681e-35 -3.769057e-34
1.0651051e-34 -1.7002427e-35 7.5021674e-35 -1.6414908e-34 -2.0375156e-34 -1.0885165e-34 1.0012966e-34 -3.8768424e-34
-1.2618225e-34 1.9955383e-35 3.4615353e-35 -2.0871876e-34 -2.268407e-34 -6.1061726e-35 -2.7467473e-34 -1.2902915e-34
3.2379853e-34 -1.9586124e-35 -4.8142193e-35 -2.078933e-34 2.9831333e-34 -1.3375196e-34 3.6885222e-35 3.3621055e-35
1.4515132e-34 3.578398e-34 -1.0308236e-35 -4.571171e-34 4.3304638e-35 1.6566248e-34 -3.9569725e-34 -1.0417254e-34
-5.0916676e-34 -3.7743413e-35 -6.769649e-35 -5.1346085e-34 3.8370937e-35 -2.1927105e-34 -2.7470518e-34 3.1382686e-35
-5.2320606e-34 -2.3025046e-34 6.959678e-35 5.358785e-35 -2.4187367e-34 -3.2494957e-36 -5.2184437e-34 -5.2989375e-34
-3.2122615e-34 -8.2943386e-35 -3.0666053e-34 -4.4570808e-35 3.5394587e-34 -2.873813e-34 2.0417086e-34 -4.2373936e-34
-2.7513446e-34 -1.3715053e-34 -2.255675e-34 -5.772422e-34 -1.7280328e-34 -1.38692e-34 -2.40524e-34 -2.1861371e-35
00000000: c9ca ab87 e766 1188 eedc a587 28fe a006
00000010: 0473 6387 3bb6 6087 1666 cc87 57a6 c007
00000020: 3064 3c86 706c 6487 badc ee07 3568 bd07
00000030: 81bb 0b88 ae1a 1888 091b a787 a565 2f88
00000040: 6b21 3e88 f6df dd87 c727 2c88 0458 5f86
00000050: 5776 0e88 836b 1c87 b6d0 2788 8b38 fb87
00000060: cce1 1807 9a02 8b07 e8de 2387 e014 8e86
00000070: 6eb7 3088 d407 8f86 c473 cf87 22e4 1707
00000080: bc97 1f88 d89b 3c88 6a68 b587 c47e b987
00000090: 80cb 8c87 ec38 5587 b220 bd06 601b 7906
000000a0: 4885 1608 148f 0f88 5fe4 5387 de7c 9f87
000000b0: 30c4 9505 7005 7187 14a3 dc87 1f29 2788
000000c0: 7bf6 9887 e08a f987 25b2 0888 fb09 4587
000000d0: c8d5 f406 4087 2286 b5fb de87 1811 1288
000000e0: fe24 e987 6788 1f07 1b27 2608 47c2 c306
000000f0: 048e 8f06 7cc4 2188 d877 da06 7278 af07
00000100: aaed c187 10f5 1606 34eb 1b88 52e2 8387
00000110: 70a7 9886 3bae c387 aec2 7987 0474 c407
00000120: e269 1788 7e9a 1f88 0f9f 2788 c45e b706
00000130: 861c 3488 3149 2088 3539 e607 2582 e207
00000140: d5a1 1688 2390 3188 628d 9a87 24b7 6687
00000150: f6a3 bd87 6b2b 7306 0802 ea05 2db6 f787
00000160: bcb3 1b88 d54d 0f07 3c35 8385 ea42 7487
00000170: 10e4 d487 d5db 5907 ab52 7f87 1bd8 df87
00000180: 800e 6507 84f4 ee85 9551 e987 74e0 dc87
00000190: b604 b487 67c9 3c07 a167 8086 3e65 d487
000001a0: 6f28 5287 001c 2788 90d2 a985 ba87 bd86
000001b0: dc6b c906 f032 ed87 fdd6 3186 0365 bd87
000001c0: 493f 8306 a77b 3c87 b069 0186 0e0e fd87
000001d0: 2232 be07 b6c7 ae87 e0a6 1e88 6e03 bf87
000001e0: e89b 3905 bc40 c987 104b ac86 9e86 6687
000001f0: 8b52 0088 a4ed e586 d460 fe87 b795 ce87
00000200: 86e6 1407 aff7 bb87 87c7 d387 5d61 3007
00000210: b344 0c88 fa82 0f88 7371 6207 fa8c 8287
00000220: c8d2 d685 7abd 2a88 fa0b c286 99a2 2906
00000230: 94c6 2388 d545 0088 9876 9b86 4810 9c07
00000240: 3cde 9506 008a 1288 c49c 2287 189b 7986
00000250: bd2b c587 0d2f 5987 d050 f605 2046 3204
00000260: 7c00 8686 ebcd 9a87 b1d6 d287 2bd0 5f87
00000270: e8f3 3c88 0500 b087 3355 8387 4878 0e86
00000280: 1afb 1588 f048 e486 7476 9905 4042 5906
00000290: 1b22 1b88 924c 7387 0e97 2888 38bd cd87
000002a0: 520a b187 7c2d fb87 e824 4586 a0ee 7007
000002b0: 5131 0688 d9fb c287 8235 a187 e6db aa87
000002c0: bce9 5107 ee69 1a88 5da6 2488 4275 c187
000002d0: e00f 4b85 5c27 2b07 1a46 c886 e0f4 0a86
000002e0: 29b2 9887 e455 1a88 44dd 2607 a6a6 b287
000002f0: 34e2 9587 c3fa 1088 d821 9e85 2f7f fa87
00000300: a693 0d07 02cd b485 1b71 c706 0a31 5a87
00000310: 886a 8787 4cb0 1087 5c18 0507 87d4 0088
00000320: 98b9 2787 b833 d405 fa0b 3806 a8b7 8a87
00000330: f2c2 9687 7554 a286 7c8d b687 5882 2b87
00000340: 7733 d707 8046 d085 c2f7 7f86 362b 8a87
00000350: 6243 c607 6fc9 3187 901d 4406 9cc2 3206
00000360: 6ff0 4007 49d3 ed07 603b 5b85 39e7 1788
00000370: 383f 6606 0534 5c07 337e 0388 1478 0a87
00000380: 1e33 2988 acad 4886 d8f7 b386 6ba0 2a88
00000390: d003 4c06 09bb 9187 aa92 b687 e6db 2606
000003a0: 73dd 2d88 1607 9987 1d05 b906 0076 8e06
000003b0: acc0 a087 e037 8a84 9c69 2d88 6016 3088
000003c0: cc7d d587 5880 dc86 96cf cb87 a4fa 6c86
000003d0: c53c eb07 65ff be87 dfb1 8707 c2cf 0c88
000003e0: b4db b687 e84d 3687 52ea 9587 56d2 3f88
000003f0: e9b1 6587 715a 3887 0adb 9f87 5078 e885

model/dense_1/MatMul f4 [64, 256]
-4.023167e-34 -0.0005919145 0.0020864035 -0.00049150496 -0.0007012918 -0.0008048002 -0.0007885588 6.433557e-35
-0.0009695894 2.2096343e-32 0.0030943807 -0.00048298264 0.0033006512 -0.0002883379 -0.00041190445 0.004024688
-3.3908893e-34 -0.0007460041 9.8225726e-17 -3.0676867e-34 -0.0005437954 -2.7606663e-22 -0.0007440378 -0.0004965224
-1.7075555e-34 -1.2812767e-34 -1.7524658e-31 0.0028806755 -2.7980944e-33 -1.1850388e-34 0.0030006482 0.0036185437
-3.9913834e-06 -8.800195e-35 -0.0007862101 -0.0011031363 0.0021073157 -0.00044244272 -0.00028567822 -0.0006150371
4.4067506e-25 -4.2604508e-24 0.0035574986 -3.1928667e-34 0.002623219 0.0030627316 -7.679316e-24 0.0022502262
-0.0008251586 -5.9278975e-35 -1.8797103e-34 -0.0004194865 0.0041531315 -0.0001470461 7.4511866e-35 -2.242932e-34
-0.0002959188 -0.0011357412 -0.00057071145 -0.0006447066 -0.0007633386 -2.6115751e-34 0.0033916226 -0.0004199329
-1.4438178e-34 -7.7544975e-35 0.003427435 0.0028806194 -8.0052576e-15 -8.3027536e-26 0.0028142673 2.349403e-30
-0.0004860357 -0.0006469354 -5.4464533e-34 -0.00039515435 0.002894666 4.240615e-32 0.0028959299 -7.208451e-35
-0.00044736592 0.0028549642 -5.2351715e-34 1.2983055e-29 -2.196747e-28 -0.0008809343 -0.0004923292 -4.1558244e-34
2.1362185e-30 -2.5192919e-26 2.1939943e-11 0.002204433 1.995849e-31 0.002626164 0.0032553563 -4.413615e-28
-4.214177e-05 -0.0006041897 0.0027092397 6.0879217e-30 -1.4792575e-23 0.0024599652 -0.0003771601 -1.707136e-34
-0.00025398406 0.0027179832 0.0020360705 -0.00061252445 -1.9034518e-27 -1.7954379e-05 -0.00048447307 -1.0766973e-34
-1.9417281e-22 -8.7847494e-35 2.7724027e-34 0.0033780644 2.6996185e-34 0.0033931488 -1.2239685e-32 -0.00030597768
-8.883089e-35 0.0027337975 -3.701408e-34 2.4230029e-21 1.2522602e-34 -0.00061007135 0.0035558348 1.418458e-25
2.3949919e-19 0.003509224 -0.0011849112 -0.0006739514 -0.00070985546 0.0023275537 -0.00069626834 -0.0004002361
-4.048429e-35 -7.6104334e-35 2.8221094e-34 -0.00057605805 1.5079695e-05 -0.0006304731 -0.00035756538 -8.4637713e-16
0.0023292447 0.0025773805 -1.984748e-34 -4.706216e-34 -1.6259132e-18 -4.0291208e-34 -2.9531726e-34 -1.9621545e-34
0.0027674485 4.7521293e-35 -3.7975774e-35 0.0031650949 0.0032141348 -4.0904485e-34 -6.921024e-35 0.0030110735
-0.00078574865 1.9700337e-25 -0.00029110815 -0.0005719382 -0.0006271758 -2.3947254e-37 -0.00059956434 -0.00046229712
0.0028785449 0.0027541686 1.0291602e-35 0.0035323482 0.0025349634 -1.5704556e-34 -0.00090061175 -0.0002428332
8.686082e-30 0.0035106004 0.0039914027 4.0751473e-34 0.0030703063 -3.91134e-34 0.003923094 0.0034036338
-4.5448007e-20 -0.0009387989 1.827463e-34 -0.00064660166 4.1872174e-34 0.0032768033 -0.0006693719 0.0028072433
0.003890829 2.2634474e-24 -0.0011878768 1.1284574e-36 -0.00042223552 0.002444218 -0.0009035976 0.0028627578
-0.0007186898 0.002781159 -0.0002954328 -0.00039654272 -0.00028412012 4.6034806e-21 7.1488693e-35 -6.373055e-13
-0.0010881807 -0.00017898009 0.0024818562 -0.00072870374 -2.5224155e-34 -3.4730727e-35 -0.0006309541 -0.0007147456
0.0020938937 -0.0008527334 0.0030204044 6.619346e-23 -8.419406e-17 -0.00070785155 -1.5177298e-25 -1.782422e-34
-0.0008269861 -0.0011903467 0.0026539285 -4.564959e-34 -3.4735413e-34 -0.0007648069 0.0027856803 -0.000900099
-0.0010158203 -0.00089205377 -0.0008842866 -0.00027812592 -1.1526463e-34 0.0027247688 0.0036129772 0.0031646695
-4.166094e-34 0.004018568 -0.00046788188 1.1874556e-34 -0.0007261528 -6.4313167e-35 -0.00089461764 -0.0008107336
-5.2618054e-35 0.0031374744 -0.0005016403 -0.0013211461 -9.697329e-35 0.0034310138 -0.00041673583 -2.2095616e-34
00000000: 52b1 0588 b62a 1bba 0bbc 083b 57d8 00ba
00000010: e5d6 37ba 3af9 52ba 49b7 4eba 8508 ab06
00000020: 0b2c 7eba 2876 e50a 18cb 4a3b d538 fdb9
00000030: bd4f 583b 0f2c 97b9 e1f4 d7b9 88e1 833b
00000040: fe5c e187 7d8f 43ba 3c7e e224 fce1 cb87
00000050: 7e8d 0eba 3edf a69b 880b 43ba 0e29 02ba
00000060: 1af9 6287 964f 2a87 aa7b 638c b7c9 3c3b
00000070: e374 6889 c884 1d87 86a6 443b 1725 6d3b
00000080: b9ed 85b6 06f3 e986 ab19 4eba 1d97 90ba
00000090: e41a 0a3b a8f7 e7b9 15c7 95b9 713a 21ba
000000a0: e061 0817 76d1 a498 ec24 693b d033 d487
000000b0: 50ea 2b3b 1cb8 483b 228a 1499 8878 133b
000000c0: 754f 58ba 2e97 9d86 3adb 7987 86ee dbb9
000000d0: fe16 883b 6330 1ab9 2616 c606 8311 9587
000000e0: 8d25 9bb9 27dd 94ba cc9b 15ba 8701 29ba
000000f0: c91a 48ba a691 ad87 fc45 5e3b 712a dcb9
00000100: 93ea 3f87 6026 ce86 d19e 603b c6c8 3c3b
00000110: bc35 10a8 f490 cd95 926f 383b 319b 3e0e
00000120: 9bd2 feb9 1a97 29ba 4dfd 3488 b82c cfb9
00000130: 70b4 3d3b 712f 5c0b a4c9 3d3b 2da2 bf86
00000140: 708c eab9 5a1a 3b3b eaf7 2d88 f0a9 830f
00000150: 423c 8b91 80ee 66ba a70f 01ba d819 0a88
00000160: 864f 2d0e a37f f994 5cfc c02d 4078 103b
00000170: bb89 810c b81b 2c3b d157 553b 80df 0b92
00000180: 62c1 30b8 7c62 1eba 808d 313b 98f4 f60e
00000190: a410 8f99 5e37 213b 92bd c5b9 d4ea 6287
000001a0: 2a29 85b9 3120 323b 986f 053b d291 20ba
000001b0: 97ce 1693 bc9c 96b7 e000 feb9 1c1e 0f87
000001c0: 93bd 6a9b e889 e986 fd41 b807 8462 5d3b
000001d0: a16b b307 975f 5e3b 5435 7e8a a16b a0b9
000001e0: 2c27 ec86 8329 333b 3200 f687 b113 371d
000001f0: 3574 2607 32ed 1fba 0209 693b ba98 2f16
00000200: 1860 8d20 02fb 653b 064f 9bba 1dac 30ba
00000210: 9815 3aba df89 183b c785 36ba c8d6 d1b9
00000220: 5c40 5786 ed51 ca86 b48f bb07 9a02 17ba
00000230: ccfe 7c37 5546 25ba 9d77 bbb9 9cf3 73a6
00000240: 3ea6 183b 45e9 283b bde8 8387 0f64 1c88
00000250: 44f1 efa1 f8e3 0588 a145 c487 5468 8287
00000260: 155e 353b a2aa 7c06 f2e9 4986 7b6d 4f3b
00000270: 3ca4 523b b0ed 0788 0cfe b786 6e55 453b
00000280: b3fa 4dba dce0 7316 e09f 98b9 1fee 15ba
00000290: 0e69 24ba 00fa a282 152c 1dba 7860 f2b9
000002a0: f8a5 3c3b 487f 343b d0e0 5a05 f87e 673b
000002b0: a121 263b d6bf 5087 0817 6cba 0aa1 7eb9
000002c0: b72c 300f 1a12 663b 50ca 823b 856b 0708
000002d0: 3137 493b 00fa 0188 4c8d 803b 800f 5f3b
000002e0: 459f 569f ba19 76ba 58e9 7207 b480 29ba
000002f0: e824 0b08 a3bf 563b ca78 2fba baf9 373b
00000300: 47fd 7e3b 3220 2f18 88b2 9bba 40ff bf03
00000310: 7e5f ddb9 2c2f 203b 69df 6cba 1b9d 3b3b
00000320: 7566 3cba 1b44 363b 52e4 9ab9 10e7 cfb9
00000330: f5f5 94b9 22ea ad1d af0c be06 b362 33ab
00000340: 49a1 8eba 9aac 3bb9 a3a6 223b 7b06 3fba
00000350: ada4 a787 04a9 3886 9d66 25ba c45d 3bba
00000360: b539 093b f889 5fba faf1 453b c40b a01a
00000370: 6723 c2a4 1d8f 39ba c7e2 3b96 adec 6c87
00000380: 19ca 58ba 6805 9cba 88ed 2d3b 60b2 1788
00000390: 3edb e687 527d 48ba f68f 363b 9ff4 6bba
000003a0: 4625 85ba b7d8 69ba 78cf 67ba 6ed1 91b9
000003b0: 8536 1987 0992 323b b3c7 6c3b 5866 4f3b
000003c0: 3571 0a88 31ae 833b 0b4e f5b9 05d7 1d07
000003d0: 4a5b 3eba 46f9 aa86 c684 6aba 6987 54ba
000003e0: fee1 8b86 169e 4d3b 8380 03ba 4f2a adba
000003f0: 4de6 0087 dcda 603b 567d dab9 bed9 9287

model/dense_2/MatMul f4 [32, 64]
0.006108993 -0.0029422175 0.0067136935 0.0064355233 0.0057271915 0.006809614 -0.0030843704 0.0076320893
-0.0036675879 0.007065677 0.0060654916 -0.0031926895 -0.0031146856 0.0066018314 0.007133064 0.007052913
0.0062083527 -0.0028137837 -0.0033654051 0.0064117066 -0.0028428168 0.006840331 0.0060756286 0.0056643086
-0.0030559525 0.0072674127 -0.002185341 -0.0035427047 -0.0032757032 0.005378147 0.006366923 -0.003756599
-2.7715688e-22 -0.002893781 0.007152548 -0.0024990186 -0.0025049862 -0.0020842997 0.0069497926 0.0057633766
-0.0028962935 -0.00280905 0.006237458 -0.003772404 -0.0030770225 -0.0028296956 0.006020696 -0.0031238717
0.0063251825 0.006797359 0.0059812316 0.0076516885 -0.0031074847 0.0060389787 -8.698531e-06 -5.015786e-18
-0.0030860123 0.0065687275 -0.0034619228 0.0071251555 -0.0027701377 0.00616244 0.0067921635 -0.0029536262
-0.0038302594 0.0059559615 -0.0038901481 -0.0033225133 -0.003125574 -0.0039257477 0.006117973 -0.004454477
0.007445487 -0.0037076557 -0.0037171901 0.007009111 0.0060088793 -0.0037802653 -0.004235607 -0.0038708404
-0.0034627065 0.0060811536 0.0064193383 -0.0034448744 0.006101641 -0.004188535 -0.0033067453 -0.0029629443
0.005884142 -0.004271843 0.005378747 0.0072990935 0.0062924796 -0.0031870392 -0.0035074037 0.0074849427
-2.662932e-22 0.006203977 -0.0036666133 0.00660233 0.005781043 0.0052894265 -0.0034203872 -0.0035135052
0.0059265345 0.005866661 -0.0035693499 0.0072497614 0.007076938 0.005939657 -0.0030668012 0.0063826796
-0.003456355 -0.003827798 -0.0032364775 -0.0040648063 0.007906247 -0.0032280823 1.8559504e-05 -1.5195114e-17
0.005746714 -0.0036629625 0.007135051 -0.0038697878 0.006015122 -0.0036714808 -0.0036136806 0.006092143
-0.0034899008 0.006049348 -0.0036182231 -0.0034980255 -0.0033019949 -0.0039004947 0.0059429705 -0.00407166
0.0070997905 -0.0039337254 -0.003558549 0.00721477 0.0056586233 -0.003554044 -0.00414298 -0.003643617
-0.0033707519 0.006339607 0.0061159073 -0.0033323667 0.005848027 -0.004098993 -0.0034613844 -0.0032627052
0.0056557744 -0.004375882 0.006205617 0.0068076607 0.0067690676 -0.0030860603 -0.0036836884 0.007529118
-5.2206436e-22 0.0057795667 -0.00360085 0.0063151945 0.005919906 0.0053086327 -0.0033391893 -0.0035860755
0.0056569995 0.005351752 -0.0033449128 0.007064154 0.006578185 0.0059469165 -0.0032840709 0.006530321
-0.003599239 -0.0040142117 -0.00339327 -0.004022152 0.007107681 -0.0032885158 1.4230531e-05 5.9091264e-18
0.0063154446 -0.0039514066 0.006704795 -0.003581588 0.0057433993 -0.0031557828 -0.0037583928 0.0057120565
0.0045633484 -0.002795237 0.004642292 0.004486238 0.0041303956 0.0055482434 -0.0029329513 0.0056357277
-0.003508946 0.0052123223 0.004558798 -0.0029700159 -0.0028922658 0.004941782 0.005702144 0.0049273837
0.004776644 -0.0026779298 -0.0030029756 0.0047565056 -0.0026538167 0.0054485337 0.0043962626 0.0044317134
-0.0026596156 0.005477357 -0.0024411052 -0.0031780386 -0.0029016612 0.003971101 0.0050987834 -0.0035135753
3.2066186e-22 -0.002551365 0.005174976 -0.0027268932 -0.0024504154 -0.002188559 0.0049597104 0.0045279423
-0.0027837765 -0.0027055417 0.005297098 -0.0034527562 -0.002664911 -0.0026343472 0.004438529 -0.002818293
0.0046474254 0.004811254 0.004663796 0.005381477 -0.0032038933 0.004601473 -8.479832e-06 -3.989862e-18
-0.0028685047 0.004785864 -0.0028526916 0.0052604675 -0.0025686785 0.005020719 0.005570104 -0.0022926894
00000000: f32d c83b 38d2 40bb 8bfe db3b 15e1 d23b
00000010: 2aab bb3b 2f23 df3b 2623 4abb 9b16 fa3b
00000020: ea5b 70bb 3287 e73b 08c1 c63b 713c 51bb
00000030: c11f 4cbb 2d54 d83b 7abc e93b 1f1c e73b
00000040: 706f cb3b 7567 38bb 218e 5cbb 4b19 d23b
00000050: 8d4e 3abb db24 e03b 1116 c73b aa9b b93b
00000060: 6046 48bb 7a23 ee3b f037 0fbb b92c 68bb
00000070: 2ead 56bb 2b3b b03b 9fa1 d03b 4631 76bb
00000080: f387 a79b 97a5 3dbb ec5f ea3b 93c6 23bb
00000090: b22a 24bb bf98 08bb 16bb e33b b5da bc3b
000000a0: becf 3dbb 0a18 38bb 9763 cc3b 703a 77bb
000000b0: dfa7 49bb 6a72 39bb 4249 c53b dfb9 4cbb
000000c0: 7a43 cf3b 61bc de3b 35fe c33b 04bb fa3b
000000d0: f1a6 4bbb a0e2 c53b e8ef 11b7 c20c b9a2
000000e0: b23e 4abb 7b3e d73b 6de1 62bb 237a e93b
000000f0: 338b 35bb 4bee c93b cc90 de3b a091 41bb
00000100: 1705 7bbb 3a2a c33b dbf1 7ebb 86be 59bb
00000110: 6ed6 4cbb 8fa3 80bb 4779 c83b ddf6 91bb
00000120: 46f9 f33b 24fc 72bb 1a9c 73bb afac e53b
00000130: 22e6 c43b 54be 77bb d9ca 8abb edad 7dbb
00000140: 93ee 62bb 6a44 c73b 5059 d23b 67c3 61bb
00000150: 46f0 c73b fa3f 89bb fbb5 58bb f52d 42bb
00000160: c3cf c03b d1fa 8bbb 3340 b03b 3c2d ef3b
00000170: 2531 ce3b a5dd 50bb 78dc 65bb 4044 f53b
00000180: e0f6 a09b bb4a cb3b 904b 70bb 5c58 d83b
00000190: e76e bd3b ed52 ad3b 9328 60bb d642 66bb
000001a0: 6033 c23b 1f3d c03b c1eb 69bb 688f ed3b
000001b0: a9e5 e73b 74a1 c23b 63fc 48bb cc25 d13b
000001c0: 0484 62bb cbdb 7abb 151b 54bb 1132 85bb
000001d0: 3489 013c 3c8e 53bb 3bb0 9b37 7326 8ca3
000001e0: ee4e bc3b 500e 70bb 25cd e93b 449c 7dbb
000001f0: 801a c53b 3a9d 70bb 80d3 6cbb 99a0 c73b
00000200: d2b6 64bb 9c39 c63b b61f 6dbb 213f 65bb
00000210: 4866 58bb 719f 7fbb 40bd c23b 8f6b 85bb
00000220: 5ca5 e83b 7be6 80bb 8c36 69bb e169 ec3b
00000230: f96b b93b f7ea 68bb d6c1 87bb c0c9 6ebb
00000240: d5e7 5cbb 7abc cf3b f367 c83b d663 5abb
00000250: cea0 bf3b d850 86bb 65d8 62bb 1cd3 55bb
00000260: 1354 b93b 8f63 8fbb 7d58 cb3b cc12 df3b
00000270: 0ecf dd3b 803f 4abb 096a 71bb d2b6 f63b
00000280: c6c8 1d9c 8562 bd3b 3dfc 6bbb b1ef ce3b
00000290: c5fb c13b 0af4 ad3b 4dd6 5abb 5d04 6bbb
000002a0: 5a5e b93b c05d af3b 5336 5bbb 6b7a e73b
000002b0: d18d d73b 5ade c23b 9139 57bb 4efc d53b
000002c0: 36e1 6bbb a689 83bb a061 5ebb 42cc 83bb
000002d0: 8de7 e83b 2484 57bb aabf 6e37 1f02 da22
000002e0: caf1 ce3b cd7a 81bb e6b3 db3b 13b9 6abb
000002f0: 2033 bc3b 40d1 4ebb 5e4f 76bb 342c bb3b
00000300: 2488 953b 4b30 37bb 5e1e 983b 4b01 933b
00000310: 4558 873b 0ace b53b c236 40bb e9ab b83b
00000320: 58f6 65bb 21cc aa3b f861 953b 99a4 42bb
00000330: 2b8c 3dbb acee a13b 0dd9 ba3b e475 a13b
00000340: 6585 9c3b 3580 2fbb 92cd 44bb 76dc 9b3b
00000350: a8eb 2dbb 9d89 b23b 860e 903b e837 913b
00000360: f24c 2ebb 677b b33b f3fa 1fbb a446 50bb
00000370: cc29 3ebb 0220 823b b213 a73b 0344 66bb
00000380: 05d4 c11b cd34 27bb d892 a93b adb5 32bb
00000390: 2697 20bb ed6d 0fbb 1185 a23b 225f 943b
000003a0: 0570 36bb 754f 31bb 4793 ad3b a347 62bb
000003b0: caa5 2ebb 03a5 2cbb 1471 913b 1cb3 38bb
000003c0: 6e49 983b b9a7 9d3b c2d2 983b 1a57 b03b
000003d0: 69f8 51bb f4c7 963b 9a44 0eb7 2e33 93a2
000003e0: 86fd 3bbb bdd2 9c3b 39f4 3abb 0060 ac3b
000003f0: 4657 28bb d884 a43b 6b85 b63b f240 16bb

model/dense_3/MatMul f4 [1, 32]
0.56666344 -0.8286751 -0.77829474 0.37537205 0.50457907 -0.15699328 0.50915617 0.60582227
0.5930383 -0.2919628 -0.87588066 0.4935884 -0.38938433 0.57927305 0.5286425 -0.851148
-0.55713 -0.6442004 0.4806432 -0.29733336 0.6823357 0.6017441 -0.23047183 0.41716427
0.5752504 0.02431867 -0.69244015 -0.6428452 0.40569156 -0.23633838 -0.4559376 0.5320989
00000000: db10 113f 0d24 54bf 533e 47bf c430 c03e
00000010: 182c 013f d9c2 20be 0f58 023f 2b17 1b3f
00000020: 5cd1 173f 267c 95be b739 60bf 9eb7 fc3e
00000030: 625d c7be 3d4b 143f 1d55 073f d6e4 59bf
00000040: 12a0 0ebf 51ea 24bf de16 f63e 143c 98be
00000050: 8dad 2e3f e70b 1a3f cf00 6cbe 8e96 d53e
00000060: 9c43 133f f337 c73c c243 31bf 8191 24bf
00000070: ceb6 cf3e b002 72be a770 e9be a237 083f

model/separable_conv2d/separable_conv2d/depthwise f4 [3]
0.0 0.0 0.0
00000000: 0000 0000 0000 0000 0000 0000

model/separable_conv2d/separable_conv2d/depthwise1 f4 [1, 3, 3, 3]
0.3869693 0.13054563 -0.08464781 -0.21245797 -0.2922118 -0.1863285 -0.20017458 0.1470386
0.29921368 -0.10764108 0.4031951 -0.025687436 0.09444854 0.3268383 0.4160798 -0.26309422
0.18240575 -0.13288292 -0.10452376 0.36742413 -0.19983576 -0.103411525 0.3387999 -0.30176896
-0.11698384 -0.37136546 0.22404452
00000000: d720 c63e c1ad 053e d55b adbd 958e 59be
00000010: c99c 95be e6cc 3ebe 91fa 4cbe 4991 163e
00000020: 8932 993e ed72 dcbd 976f ce3e 756e d2bc
00000030: 3c6e c13d 5a57 a73e 6908 d53e 49b4 86be
00000040: 93c8 3a3e 7612 08be 8e10 d6bd 041f bc3e
00000050: bfa1 4cbe 6cc9 d3bd 2e77 ad3e 7681 9abe
00000060: 3995 efbd 9d23 bebe ed6b 653e

model/separable_conv2d/separable_conv2d f4 [16, 1, 1, 3]
-4.0687118 1.2021599 -3.1602814 10.523427 6.166398 1.6311884 -2.4068348 2.232892
-3.4121976 1.63537 4.195453 1.7218132 3.3041043 -1.6400031 0.77658594 -2.0985744
2.2357285 2.647124 -7.9558167 -6.1098094 0.490725 4.1593494 5.0217786 -6.0028405
1.1530954 3.9665134 -1.9043974 0.96279943 2.592842 -14.064591 3.1617045 -1.4178674
4.3203835 -3.910078 1.1989708 -4.862757 -4.5232973 -4.304459 5.7521424 0.89640164
-2.8661387 -3.359331 -1.8043011 -4.1079984 4.5590315 4.0607915 5.13337 -4.9363756
00000000: e332 82c0 60e0 993f 0d42 4ac0 f55f 2841
00000010: 2253 c540 c8ca d03f 9509 1ac0 b4e7 0e40
00000020: 7261 5ac0 ce53 d13f 2741 8640 6064 dc3f
00000030: 7276 5340 9feb d1bf 56ce 463f 0b4f 06c0
00000040: 2d16 0f40 7b6a 2940 0d96 fec0 8f83 c3c0
00000050: 4f40 fb3e 6419 8540 69b2 a040 4517 c0c0
00000060: a198 933f 5bdb 7d40 4bc3 f3bf 067a 763f
00000070: 20f1 2540 9108 61c1 5e59 4a40 ae7c b5bf
00000080: 9540 8a40 b83e 7ac0 e077 993f b59b 9bc0
00000090: dabe 90c0 21be 89c0 8d11 b840 947a 653f
000000a0: d16e 37c0 47ff 56c0 57f3 e6bf b974 83c0
000000b0: 96e3 9140 01f2 8140 9144 a440 caf6 9dc0

model/separable_conv2d_1/separable_conv2d/depthwise f4 [16]
0.0 0.0 0.0 0.0 0.0 0.0 0.0 0.0
0.0 0.0 0.0 0.0 0.0 0.0 0.0 0.0
00000000: 0000 0000 0000 0000 0000 0000 0000 0000
00000010: 0000 0000 0000 0000 0000 0000 0000 0000
00000020: 0000 0000 0000 0000 0000 0000 0000 0000
00000030: 0000 0000 0000 0000 0000 0000 0000 0000

model/separable_conv2d_1/separable_conv2d/depthwise1 f4 [1, 3, 3, 16]
0.057482675 -0.08784483 0.16342351 -0.17231244 0.113088526 0.08034881 0.1306411 0.19188564
0.16566725 0.13563424 0.1625933 -0.18533611 0.12703623 -0.080594264 0.053722035 -0.2127477
0.028281163 -0.020436 -0.17045702 0.10249775 0.06722274 -0.005856375 0.1277829 0.016572386
-0.1693602 -0.09933118 -0.16528487 -0.11370413 -0.060147367 0.09382741 0.14377847 0.03480738
0.12052053 0.09613116 0.17241831 -0.061339907 0.11109031 0.13684542 -0.00075389206 -0.020103455
-0.030878289 0.17535406 -0.031686444 0.16760702 0.04755784 0.124265574 -0.04852394 0.078677304
-0.09807641 0.087637916 0.19942768 -0.037973672 -0.08118098 0.050319433 -0.17876007 -0.029550279
-0.017011395 -0.023658529 0.12132444 -0.20318256 0.11620649 -0.095932916 0.0597195 0.101376295
0.0025324107 0.103099525 0.107006975 0.045537844 -0.036362007 0.004824262 0.04705903 -0.15570973
-0.07867654 -0.16560704 0.1512424 0.15267317 0.12897778 -0.06502086 -0.032342095 0.06647804
-0.15317968 0.085911244 -0.1386085 -0.18099214 0.06871014 -0.14016448 -0.033128943 0.0859153
-0.18111606 0.052723166 -0.121629745 -0.005485322 -0.16454583 -0.16854833 0.17220405 0.19079722
0.02536359 -0.028696246 -0.16017191 0.15152249 -0.14141186 0.099689685 -0.13908055 -0.16112818
-0.06169649 -0.113840334 -0.03807842 -0.037483234 -0.1074244 -0.044490047 -0.084596634 0.03818027
-0.18735935 0.14104189 -0.097002596 -0.037782606 -0.018960174 0.10053499 -0.011605407 -0.014124769
0.11669442 -0.15673572 0.07767584 -0.043471985 0.10596668 -0.06930461 -0.097880594 -0.004465644
0.0074432134 -0.11203548 0.038148686 0.08880122 -0.16447645 0.036390245 -0.10810759 -0.05253473
0.13757521 0.13622753 0.1634325 0.18713373 0.0040510623 -0.04702108 0.14362772 -0.11276973
00000000: f472 6b3d fde7 b3bd 7e58 273e ac72 30be
00000010: f59a e73d eb8d a43d c8c6 053e ab7d 443e
00000020: ada4 293e b4e3 0a3e dc7e 263e c0c8 3dbe
00000030: c915 023e 9b0e a5bd a30b 5c3d 88da 59be
00000040: e6ad e73c 6669 a7bc 498c 2ebe 57ea d13d
00000050: 13ac 893d d6e6 bfbb 85d9 023e d0c2 873c
00000060: c36c 2dbe 256e cbbd 7040 29be b6dd e8bd
00000070: 165d 76bd 9628 c03d aa3a 133e 2f92 0e3d
00000080: 78d3 f63d 6ae0 c43d 6d8e 303e 8e3f 7bbd
00000090: 5183 e33d 3521 0c3e d7a0 45ba 00b0 a4bc
000000a0: 77f4 fcbc 0490 333e a5c9 01bd 2da1 2b3e
000000b0: 02cc 423d f37e fe3d 0ac1 46bd 9121 a13d
000000c0: 49dc c8bd 827b b33d c536 4c3e 488a 1bbd
000000d0: 3742 a6bd c01b 4e3d e10c 37be 6d13 f2bc
000000e0: 7b5b 8bbc 88cf c1bc f378 f83d 170f 50be
000000f0: abfd ed3d 7a78 c4bd 6f9c 743d 609e cf3d
00000100: cdf6 253b d825 d33d 7926 db3d e485 3a3d
00000110: 54f0 14bd d814 9e3b f8c0 403d 5f72 1fbe
00000120: 2a21 a1bd e494 29be 4adf 1a3e 5b56 1c3e
00000130: c012 043e a829 85bd 2579 04bd a325 883d
00000140: 22db 1cbe 3cf2 af3d 63ef 0dbe 0156 39be
00000150: e7b7 8c3d 4787 0fbe 37b2 07bd 5cf4 af3d
00000160: 7d76 39be 3ff4 573d 0419 f9bd 37be b3bb
00000170: b47e 28be ef97 2cbe 4256 303e 5960 433e
00000180: 4ec7 cf3c 6414 ebbc 1b04 24be b628 1b3e
00000190: 45ce 10be 1b2a cc3d 226b 0ebe c9fe 24be
000001a0: 75b5 7cbd 1f25 e9bd 1ef8 1bbd 0588 19bd
000001b0: 5301 dcbd 323b 36bd 0041 adbd ea62 1c3d
000001c0: 21db 3fbe 496d 103e 4ca9 c6bd efc1 1abd
000001d0: 5e52 9bbc 4ae5 cd3d 9b24 3ebc 936b 67bc
000001e0: 7cfd ee3d 547f 20be 8314 9f3d ae0f 32bd
000001f0: 0f05 d93d 93ef 8dbd 9f75 c8bd 8954 92bb
00000200: 33e6 f33b dc72 e5bd cc41 1c3d 6add b53d
00000210: 846c 28be f00d 153d 8367 ddbd a82e 57bd
00000220: 84e0 0c3e 3b7f 0b3e d95a 273e fc9f 3f3e
00000230: c6be 843b 2d99 40bd 2513 133e d1f3 e6bd

model/separable_conv2d_1/separable_conv2d f4 [32, 1, 1, 16]
2.8631887 -2.0375662 2.8462048 -1.0075169 4.375937 -1.4841558 -1.389067 -3.1071422
-0.1874825 -1.9175276 -2.9529574 0.032302044 -1.4768463 2.783615 4.415989 -3.602172
1.4022539 -0.4368281 0.44739607 0.41765648 -0.11631585 -0.85674703 -0.38050902 -1.4218811
0.23442893 0.2221645 1.541789 1.8288001 0.7911757 -0.76047 1.262018 1.1081799
0.6154876 -2.1505446 2.196614 -1.6455644 0.66750455 1.937463 -1.7844187 -1.1648643
-1.5327866 -0.14430743 1.1453946 -0.96817255 -2.2252815 -0.13919182 -0.28629696 2.3099983
-0.88585943 -0.17637752 0.42152154 -1.0240431 -0.68152624 -1.0537864 -0.76501167 -1.6583802
0.8391716 0.64454454 1.7459099 0.8186468 -1.1500148 -1.7654295 0.9006478 -0.57915634
-1.8553914 0.27254814 -0.5101744 4.257749 -5.4271135 -3.2971745 4.738581 1.575523
-5.0900054 -1.9166925 4.206042 0.44291657 2.7824128 4.852541 -2.4564126 -3.8349466
-0.1851017 2.4615667 -2.3323793 -2.416156 -0.7832291 -0.58410114 -4.558843 -0.84837306
3.4533823 3.0987024 -2.4323049 1.3790655 -2.4081485 -1.8750068 3.991563 3.05561
0.991787 2.5281327 -2.3039396 -0.13010077 -3.8902538 -2.622954 3.3433783 1.3516423
-3.9311392 -3.0021842 -0.3034709 -3.870371 -1.6267699 -3.2008028 -3.997612 0.6050657
0.3983779 1.2290443 2.5829005 2.8693066 -2.2751455 -2.049134 1.929552 0.8265185
3.4021847 0.42586014 -0.26207238 -2.647534 -2.043171 -0.7551963 1.0174165 -0.27625057
-5.2770605 0.21723662 -3.0521016 -5.1656356 2.4562297 1.3519349 -1.3188094 2.5877085
0.29115707 2.788979 -3.1522152 -2.0884132 -2.1487458 -2.614043 5.1856627 -4.366789
3.8220387 -3.5188892 -2.3749378 -0.7322992 -0.8135114 2.678981 -0.49945498 1.8341676
-4.3636293 5.098508 -0.48431206 0.22494179 -2.3878593 2.9333398 1.4100901 0.1525319
-1.6615582 -1.2831551 -0.9793663 1.4559772 -1.5944505 -1.2782676 1.6396661 1.0565859
1.5527502 0.94411683 2.1148624 2.52626 -1.8366289 -1.9152861 -1.6983697 0.74255806
-3.080529 -3.565557 -1.8858131 -3.1538718 1.7284257 -1.4815788 -3.8384945 3.2465727
1.3757577 -3.9705007 2.2204237 0.12634638 2.9566638 3.648392 2.581353 2.803833
-4.2323546 1.1352409 -0.28338543 3.634987 -4.267317 0.5679705 3.7432084 -1.1079905
-0.5077703 2.0162475 0.14952269 -0.7269667 -1.2977501 -4.5563807 0.3351305 -1.6377316
2.0434234 -1.7015806 6.6903634 -3.6094074 -1.9804105 4.1860833 6.2416444 2.5572727
2.9236894 0.3790105 1.606481 -1.0381942 6.442766 3.3273196 4.322033 -5.63919
6.703081 1.0112777 3.3983507 4.8585305 -1.1988479 4.6399317 2.0140991 1.3223597
-5.5641694 5.753888 -3.989205 2.788237 -3.7172484 -4.9094677 0.9939668 -3.2767532
-0.09355104 1.3928428 -1.7312213 0.5563008 -1.8154554 1.043106 1.1459637 0.46231887
1.9087455 1.232127 -0.25083995 -0.88620096 -1.1111381 2.2891948 -1.2523837 1.5164841
00000000: 7c3e 3740 7c67 02c0 3828 3640 50f6 80bf
00000010: ad07 8c40 d1f8 bdbf f3cc b1bf 6bdb 46c0
00000020: 6afb 3fbe 8b71 f5bf 41fd 3cc0 264f 043d
00000030: 4d09 bdbf c026 3240 c84f 8d40 fc89 66c0
00000040: 0e7d b33f efa7 dfbe 1911 e53e 12d7 d53e
00000050: 0137 eebd c653 5bbf 14d2 c2be 3300 b6bf
00000060: 230e 703e 177f 633e 5859 c53f 1f16 ea3f
00000070: 7e8a 4a3f 29ae 42bf ce89 a13f d7d8 8d3f
00000080: 9890 1d3f 86a2 09c0 5395 0c40 dba1 d2bf
00000090: 94e1 2a3f cafe f73f d567 e4bf 461a 95bf
000000a0: 5a32 c4bf 54c5 13be 4a9c 923f 28da 77bf
000000b0: 036b 0ec0 4d88 0ebe 8495 92be 03d7 1340
000000c0: afc7 62bf 4f9c 34be acd1 d73e d813 83bf
000000d0: 8178 2ebf 79e2 86bf ced7 43bf cd45 d4bf
000000e0: f3d3 563f df00 253f fa79 df3f d692 513f
000000f0: af33 93bf 98f9 e1bf db90 663f 9743 14bf
00000100: 777d edbf 6e8b 8b3e ca9a 02bf 7b3f 8840
00000110: eaaa adc0 e804 53c0 75a2 9740 bdaa c93f
00000120: 53e1 a2c0 2e56 f5bf e597 8640 f6c5 e23e
00000130: 0d13 3240 0448 9b40 dd35 1dc0 c46f 75c0
00000140: 4d8b 3dbe 4f8a 1d40 b445 15c0 4da2 1ac0
00000150: b481 48bf a787 15bf 0be2 91c0 fa2e 59bf
00000160: 3704 5d40 2451 4640 e2aa 1bc0 3885 b03f
00000170: 1b1f 1ac0 3900 f0bf c575 7f40 1d8f 4340
00000180: c1e5 7d3f edcc 2140 bf73 13c0 2339 05be
00000190: ebf9 78c0 7ade 27c0 e9f9 5540 9d02 ad3f
000001a0: c997 7bc0 c923 40c0 8a60 9bbe 29b4 77c0
000001b0: ff39 d0bf f4d9 4cc0 e0d8 7fc0 96e5 1a3f
000001c0: 30f8 cb3e 5351 9d3f 3e4e 2540 b8a2 3740
000001d0: fc9b 11c0 0325 03c0 8ffb f63f b796 533f
000001e0: 65bd 5940 570a da3e 5a2e 86be 3271 29c0
000001f0: 50c3 02c0 8b54 41bf b43a 823f b770 8dbe
00000200: aedd a8c0 4773 5e3e a255 43c0 e34c a5c0
00000210: de32 1d40 340c ad3f bfce a8bf 049d 2540
00000220: 8a12 953e a27e 3240 e5bd 49c0 90a8 05c0
00000230: 0d85 09c0 7b4c 27c0 f3f0 a540 bcbc 8bc0
00000240: 489c 7440 7b35 61c0 fbfe 17c0 f677 3bbf
00000250: 4842 50bf 6d74 2b40 90b8 ffbe 01c6 ea3f
00000260: daa2 8bc0 fa26 a340 c0f7 f7be 2457 663e
00000270: b0d2 18c0 d7bb 3b40 d57d b43f 5331 1c3e
00000280: f0ad d4bf 6d3e a4bf c0b7 7abf 765d ba3f
00000290: f416 ccbf 469e a3bf 94e0 d13f 353e 873f
000002a0: 85c0 c63f a4b1 713f e859 0740 3eae 2140
000002b0: a816 ebbf 1828 f5bf 2e64 d9bf 4918 3e3f
000002c0: 6327 45c0 1632 64c0 5362 f1bf 09d9 49c0
000002d0: 0e3d dd3f 60a4 bdbf e5a9 75c0 d9c7 4f40
000002e0: d418 b03f af1c 7ec0 6c1b 0e40 f260 013e
000002f0: fb39 3d40 417f 6940 e334 2540 0072 3340
00000300: 736f 87c0 934f 913f e517 91be a1a3 6840
00000310: dc8d 88c0 8466 113f ba90 6f40 a2d2 8dbf
00000320: 3cfd 01bf 330a 0140 7a1c 193e 7d1a 3abf
00000330: ad1c a6bf dfcd 91c0 3a96 ab3e 30a1 d1bf
00000340: 73c7 0240 65cd d9bf 7517 d640 8800 67c0
00000350: 177e fdbf 65f4 8540 8dbb c740 5baa 2340
00000360: ba1d 3b40 aa0d c23e 2ba1 cd3f 8ce3 84bf
00000370: 242b ce40 cef2 5440 184e 8a40 3f74 b4c0
00000380: a47f d640 8c71 813f 947e 5940 1579 9b40
00000390: d973 99bf 527a 9440 00e7 0040 1543 a93f
000003a0: ad0d b2c0 da1f b840 224f 7fc0 7a72 3240
000003b0: 66e7 6dc0 5c1a 9dc0 9c74 7e3f 53b6 51c0
000003c0: b097 bfbd ac48 b23f a998 ddbf bb69 0e3f
000003d0: d860 e8bf 7f84 853f f0ae 923f 0fb5 ec3e
000003e0: c651 f43f 56b6 9d3f 186e 80be 11de 62bf
000003f0: c639 8ebf 2b82 1240 1c4e a0bf 271c c23f

model/separable_conv2d_2/separable_conv2d/depthwise f4 [32]
0.0 0.0 0.0 0.0 0.0 0.0 0.0 0.0
0.0 0.0 0.0 0.0 0.0 0.0 0.0 0.0
0.0 0.0 0.0 0.0 0.0 0.0 0.0 0.0
0.0 0.0 0.0 0.0 0.0 0.0 0.0 0.0
00000000: 0000 0000 0000 0000 0000 0000 0000 0000
00000010: 0000 0000 0000 0000 0000 0000 0000 0000
00000020: 0000 0000 0000 0000 0000 0000 0000 0000
00000030: 0000 0000 0000 0000 0000 0000 0000 0000
00000040: 0000 0000 0000 0000 0000 0000 0000 0000
00000050: 0000 0000 0000 0000 0000 0000 0000 0000
00000060: 0000 0000 0000 0000 0000 0000 0000 0000
00000070: 0000 0000 0000 0000 0000 0000 0000 0000

model/separable_conv2d_2/separable_conv2d/depthwise1 f4 [1, 3, 3, 32]
0.08724403 -0.13330491 0.04053573 -0.11432233 0.067504406 0.14288142 0.09893291 0.062932596
0.097178586 0.0045441934 0.11416928 0.0016876333 0.05346344 0.0047303196 -0.03618588 0.04790866
0.011602102 0.14015728 0.069417596 0.11080423 -0.05769078 -0.12617368 0.038910203 -0.087173425
0.11934997 -0.04541529 0.094048105 -0.12510161 -0.1643584 0.016896084 0.0063979784 0.13750131
-0.011131042 -0.08355763 0.0051137214 0.022380795 -0.027581317 -0.062389955 -0.03652335 0.12806766
-0.0043381746 0.08032073 0.13268949 0.0025111947 -0.08701634 -0.0520645 0.07002224 0.07662395
0.069747075 -0.02320645 0.039269574 -0.10025321 -0.011458299 0.15675797 0.07596665 -0.056973424
-0.06389735 0.15113503 -0.06303526 0.109338135 0.011170594 -0.0727013 -0.08403198 0.03823103
-0.13993369 -0.102886915 0.054946702 -0.065720305 -0.068913676 -0.044521965 0.10733376 0.11091359
-0.08438935 -0.0019380584 0.07658631 0.044803165 0.03494484 0.018961444 0.057713132 -0.0045321225
-0.058422297 -0.074344695 -0.015460886 -0.043010682 0.004389093 -0.121763304 -0.040796883 -0.17404708
-0.033323083 0.08153303 0.04489836 -0.06698638 -0.08910194 -0.0076975957 0.100579806 -0.11834093
0.07522596 -0.017465644 -0.057051726 -0.13037409 0.024184266 -0.011654082 0.044315655 -0.08705786
0.09854019 0.11704602 0.012972766 0.09697797 0.10498003 0.16433516 -0.046166223 -0.048029788
-0.11284329 -0.004051493 -0.04524026 0.013638893 0.011214449 0.010488266 0.023754532 0.023576904
-0.09805933 -0.15418726 -0.11735805 0.09037885 0.13643728 0.058875013 -0.1344797 0.08039604
0.052620824 -0.095809795 -0.010098022 -0.11696637 -0.115731105 -0.13376532 0.09726331 -0.037153687
-0.011351252 0.006311601 -0.098656006 0.07530672 -0.09280087 -0.020026226 0.1007348 -0.08163733
0.033170864 -0.13541454 -0.10617107 -0.05982035 0.049994603 0.112311766 -0.027205331 -0.13185513
-0.054861065 -0.041051935 -0.024596272 0.03632705 -0.009689486 0.046092045 -0.076572284 0.14003512
-0.060422122 -0.0824475 0.031891424 0.04982712 -0.037526596 -0.020284165 -0.12550011 0.13412598
0.02499576 0.014230639 0.03848669 -0.0034085468 -0.17002553 0.10881485 0.08491384 -0.009457722
-0.076925375 0.006036596 0.14366129 -0.13460398 0.036477834 -0.022361761 -0.015230006 0.11415477
-0.011568474 0.035953004 0.04540552 0.07212309 -0.044315845 0.016320387 0.047791928 -0.09058999
0.10445517 0.05210107 -0.13620558 -0.026882928 0.03656949 -0.0007020213 -0.1754793 0.022798123
-0.14377373 -0.106461026 -0.015582072 -0.10997017 0.054077893 0.07897379 0.011535477 -0.09098847
-0.08376032 0.08337123 -0.14596333 -0.052262597 -0.1384523 0.16556571 -0.01534223 -0.08856609
-0.023614597 0.00788493 -0.11180375 -0.048982777 0.13398923 -0.04627342 -0.077891104 -0.0190614
-0.025327433 0.040945705 0.08436985 0.11149406 0.1082594 -0.07275028 -0.064654246 0.07817834
0.000724357 -0.040205978 -0.06589193 -0.08103585 0.026945682 -0.12258709 0.065930866 -0.007650113
-0.090151176 -0.00048021585 -0.08403987 0.060166694 0.11743988 -0.07197709 0.076691665 0.15799657
-0.051037885 0.0130057335 -0.114190854 -0.073981315 0.06410716 -0.046223473 0.15183033 -0.116969936
00000000: ffac b23d 1581 08be cb08 263d d321 eabd
00000010: c03f 8a3d 824f 123e 569d ca3d cee2 803d
00000020: 9105 c73d 75e7 943b 95d1 e93d 9433 dd3a
00000030: 7bfc 5a3d cc00 9b3b a537 14bd df3b 443d
00000040: be16 3e3c 6485 0f3e d02a 8e3d 54ed e23d
00000050: 2b4d 6cbd ac33 01be 4e60 1f3d fb87 b2bd
00000060: c26d f43d 6205 3abd 4b9c c03d a31a 00be
00000070: 924d 28be a869 8a3c 22a6 d13b 25cd 0c3e
00000080: f95e 36bc 4320 abbd 0191 a73b ee57 b73c
00000090: 37f2 e1bc 9c8c 7fbd 8299 15bd 2b24 033e
000000a0: 3f27 8ebb 327f a43d c1df 073e db92 243b
000000b0: 9f35 b2bd 9641 55bd d267 8f3d 04ed 9c3d
000000c0: 8ed7 8e3d 741b bebc 22d9 203d 8e51 cdbd
000000d0: 97bb 3bbc 2985 203e 6794 9b3d f75c 69bd
000000e0: 9ddc 82bd 24c3 1a3e a118 81bd acec df3d
000000f0: de04 373c 6be4 94bd f518 acbd 2498 1c3d
00000100: c74a 0fbe 60b6 d2bd cb0f 613d 5e98 86bd
00000110: 9d22 8dbd aa5c 36bd cdd1 db3d aa26 e33d
00000120: 53d4 acbd 7306 feba 49d9 9c3d 8683 373d
00000130: 5222 0f3d 0855 9b3c 9b64 6c3d 3382 94bb
00000140: 384c 6fbd 0842 98bd a84f 7dbc f82b 30bd
00000150: 61d2 8f3b 0a5f f9bd a21a 27bd 6639 32be
00000160: c97d 08bd cafa a63d 58e7 373d 2830 89bd
00000170: 147b b6bd 1d3c fcbb c9fc cd3d bb5c f2bd
00000180: 1110 9a3d 1c14 8fbc 12af 69bd c980 05be
00000190: 151e c63c c3f0 3ebc 5584 353d 644b b2bd
000001a0: 70cf c93d d3b5 ef3d b98b 543c 639c c63d
000001b0: c5ff d63d 7a47 283e cb18 3dbd e2ba 44bd
000001c0: 621a e7bd 63c2 84bb da4d 39bd aa75 5f3c
000001d0: cfbc 373c fad6 2b3c dd98 c23c 5a24 c13c
000001e0: 54d3 c8bd 44e3 1dbe 6b59 f0bd 8c18 b93d
000001f0: 37b6 0b3e ed26 713d 0cb5 09be aea6 a43d
00000200: ef88 573d ed37 c4bd 2d72 25bc 108c efbd
00000210: 6e04 edbd c7f9 08be fc31 c73d 772e 18bd
00000220: 9afa 39bc 8cd1 ce3b 290c cabd 693a 9a3d
00000230: 620e bebd 0a0e a4bc 0c4e ce3d 7931 a7bd
00000240: 2cde 073d 1caa 0abe 3870 d9bd 2f06 75bd
00000250: 24c7 4c3d b603 e63d b7dd debc 0805 07be
00000260: ffb5 60bd 1326 28bd 1f7e c9bc accb 143d
00000270: a6c0 1ebc 03cb 3c3d eed1 9cbd 5e65 0f3e
00000280: 307d 77bd 3cda a8bd 95a0 023d 8617 4c3d
00000290: 7db5 19bd fa2a a6bc 1a83 00be 5258 093e
000002a0: e8c3 cc3c a027 693c 38a4 1d3d ed61 5fbb
000002b0: 2c1b 2ebe 52da de3d 4fe7 ad3d 90f4 1abc
000002c0: 0d8b 9dbd a3ce c53b f21b 133e a0d5 09be
000002d0: c869 153d 0330 b7bc 4687 79bc fac9 e93d
000002e0: b289 3dbc 7543 133d 23fb 393d 45b5 933d
000002f0: 8884 35bd 55b2 853c 78c1 433d 3f87 b9bd
00000300: 98ec d53d ee67 553d 7a79 0bbe 9639 dcbc
00000310: e4c9 153d da07 38ba d8b0 33be 21c3 ba3c
00000320: 6c39 13be 3d08 dabd f24b 7fbc 0a38 e1bd
00000330: c880 5d3d 03bd a13d 4cff 3c3c 2a58 babd
00000340: 888a abbd 89be aa3d 6977 15be 4e11 56bd
00000350: 71c6 0dbe 0f8a 293e fa5d 7bbc 2362 b5bd
00000360: 6673 c1bc cb2f 013c 5df9 e4bd 2aa2 48bd
00000370: 7934 093e 3389 3dbd 5f85 9fbd a726 9cbc
00000380: 7a7b cfbc afb6 273d 1aca ac3d ff56 e43d
00000390: 1bb7 dd3d 19fe 94bd 7269 84bd f71b a03d
000003a0: c7e2 3d3a 06af 24bd 59f2 86bd 20f6 a5bd
000003b0: 31bd dc3c f10e fbbd c306 873d cdad fabb
000003c0: 2ea1 b8bd 7bc5 fbb9 181d acbd 5a71 763d
000003d0: 5284 f03d b968 93bd 8510 9d3d dac9 213e
000003e0: 1a0d 51bd 0016 553c e5dc e9bd 8483 97bd
000003f0: 9d4a 833d d354 3dbd 6979 1b3e ef8d efbd
